Saved models/ab_mc_model/model_weights.pt (torch, 647509 bytes, 12 tensors)

conv1.weight f4 [16, 3, 3, 3]
0	0xbe4c555b	-0.19954436
1	0xbd6a36c9	-0.057181153
2	0x3dba236f	0.0908879
3	0x3d9b8a57	0.075947456
4	0xbe0376e3	-0.1283832
5	0x3dda433c	0.10657355
6	0x3d215fe2	0.03939808
7	0x3dc7d0f1	0.09756649
8	0x3cecd088	0.02890803
9	0xbd16f353	-0.036853146
10	0xbe139d3e	-0.14415452
11	0x3dc89563	0.09794118
12	0xbca31f8a	-0.0199125
13	0x3d997848	0.07493645
14	0xbc74c605	-0.01493979
15	0x3d91aa63	0.07112577
16	0x3e1888b0	0.14895892
17	0x3e8240c4	0.25440037
18	0xbe72b04c	-0.23700064
19	0xbe6742d1	-0.22584082
20	0x3de43246	0.111424014
21	0xbe32a409	-0.17445387
22	0xbc4e60f3	-0.012596357
23	0x3d182054	0.037140206
24	0x3e108b0a	0.14115539
25	0xbcff7f2f	-0.031188576
26	0x3e6d350a	0.23164764
27	0x3e362e3b	0.17791073
28	0x3e77d63f	0.24202822
29	0x3e5daab1	0.21647145
30	0x3e01d941	0.12680532
31	0x3ddb5808	0.1071015
32	0xbda0897d	-0.07838724
33	0xbdb750fd	-0.08950994
34	0xbcd247b1	-0.02566895
35	0x3cb64745	0.02225078
36	0x3e1fc111	0.15600993
37	0x3e382f71	0.17986847
38	0x3e23bdaf	0.15990327
39	0xbdb55c00	-0.08855438
40	0xbd494951	-0.049142186
41	0xbd33ab87	-0.043864753
42	0xbe36adb8	-0.17839706
43	0xbe54a2b0	-0.20765185
44	0xbdcf67aa	-0.10127194
45	0xbcb06eeb	-0.021537265
46	0xbd9dd255	-0.07706133
47	0x3d81a027	0.06329375
48	0xbdcbfee3	-0.09960725
49	0x3d63c077	0.05560347
50	0x3d7a5a97	0.06112155
51	0x3d883f14	0.06652656
52	0xbe633c80	-0.22191048
53	0xbdbfa8f0	-0.09358394
54	0x3dc895de	0.0979421
55	0xbdb8dca3	-0.09026458
56	0x3e4f494d	0.20242806
57	0xbe01a61f	-0.12661026
58	0xbd8a5989	-0.06755359
59	0x3e6b82a5	0.22999056
60	0xbe7baa8d	-0.24576779
61	0xbe65eda0	-0.22453928
62	0xbd6e1385	-0.058124084
63	0x3df69c37	0.12041514
64	0x3de8a063	0.11358716
65	0x3e8e63bd	0.2781047
66	0x3cb7d8a6	0.022442173
67	0xbdcf87de	-0.101333365
68	0x3ca6bc4b	0.020353457
69	0xbe5389ff	-0.2065811
70	0xbb5af356	-0.00334092
71	0xbd035635	-0.032064635
72	0xbe196760	-0.1498084
73	0xbd2004f2	-0.039067216
74	0x3e05d2ba	0.13068667
75	0xbd19b8fe	-0.037529938
76	0xbd93abb5	-0.07210485
77	0x3e5967d2	0.2123101
78	0xbe1afbf8	-0.15135181
79	0xbd9c10db	-0.076204024
80	0x3db21a09	0.08696372
81	0xbd910181	-0.07080365
82	0x3c855237	0.016274555
83	0x3e43fb3b	0.19138806
84	0x3d89269a	0.06696816
85	0x3e26f636	0.1630486
86	0x3d84dde8	0.06487638
87	0x3a80b665	0.0009819983
88	0x3e05957c	0.13045305
89	0x3e49a978	0.19693553
90	0xbe531516	-0.20613512
91	0xbc5815de	-0.013188807
92	0xbd934bbd	-0.0719218
93	0xbde2c50c	-0.1107274
94	0xbe2e9ab6	-0.17051205
95	0x3e1a0166	0.15039596
96	0xbe458748	-0.19289887
97	0xbd99cb8a	-0.07509525
98	0xbc82efcc	-0.015983485
99	0xbe6e700f	-0.23284934
100	0x3cd702e2	0.026246492
101	0x3d9638ab	0.07335027
102	0xbd864f83	-0.065581344
103	0xbd063527	-0.032765534
104	0x3ca6e6f7	0.020373804
105	0xbca2a721	-0.019855084
106	0x3e06377f	0.13107108
107	0xbcf56c66	-0.029958915
108	0xbd3fbe3b	-0.046812277
109	0x39c9ff1f	0.00038527788
110	0x3d055f61	0.032561664
111	0x3dbefd3c	0.093256444
112	0xbe2dbec6	-0.16967306
113	0x3dab49b6	0.083636686
114	0x3d10b177	0.035325494
115	0xbd60b9b5	-0.054864604
116	0x3e2095bb	0.15682118
117	0xbdafb049	-0.085785456
118	0x3d9f9c8b	0.0779353
119	0x3d89bf79	0.06725974
120	0x3dc7e10d	0.09759722
121	0x3dbef346	0.093237445
122	0x3e1c6306	0.1527215
123	0x3da93eaf	0.08263909
124	0x3dcd0c53	0.10012116
125	0xbcabb42b	-0.020959934
126	0xbd89d507	-0.06730085
127	0xbdb5e1e8	-0.08880979
128	0xbe0f7c32	-0.1401222
129	0x3e178c33	0.14799576
130	0xbd9e0619	-0.07716007
131	0x3dcdf2b5	0.10056058
132	0xbd543d9e	-0.051816575
133	0xbda06b84	-0.07833007
134	0x3e178d6e	0.14800045
135	0xbe3f0153	-0.18652849
136	0xbd9ba5f2	-0.07600011
137	0xbd618609	-0.055059467
138	0x3d93e0fd	0.072206475
139	0x3c2113af	0.009831353
140	0x3ceec4a3	0.029146498
141	0x3dda8e82	0.106717125
142	0x3de85f45	0.11346296
143	0x3dd9ecf2	0.10640897
144	0x3df662ba	0.12030549
145	0xbe12ccd7	-0.14335953
146	0xbe6d4454	-0.23170596
147	0x3de4b668	0.11167604
148	0xbe25c979	-0.16190137
149	0xbe2658ec	-0.16244859
150	0x3e239161	0.15973426
151	0x3dd1a922	0.10237338
152	0x3e786065	0.24255522
153	0xbd771e58	-0.060331672
154	0xbdec87f1	-0.11549366
155	0xbe87221b	-0.26393208
156	0x3deea623	0.11652782
157	0xbe0fd70c	-0.14046878
158	0xbd45f985	-0.048333663
159	0x3e55835d	0.20850892
160	0x3d6d8c3f	0.057995077
161	0x3b40ca36	0.0029417402
162	0x3e004271	0.12525345
163	0xbc7919a8	-0.015203871
164	0x3cd55d7d	0.026045555
165	0x3e36b5f7	0.17842852
166	0xbd97322a	-0.07382615
167	0xbc844cd7	-0.016149921
168	0xbc5d3662	-0.013501735
169	0x3e5609f6	0.20902237
170	0x3d6b8070	0.057495534
171	0xbe18c107	-0.14917384
172	0x3b7874f5	0.0037911509
173	0x3d0ec028	0.034851223
174	0xbdb45e3d	-0.08807037
175	0xbdf9d560	-0.12198901
176	0xbe0f39c6	-0.13986883
177	0x3e4f175b	0.20223753
178	0x3e4e97f8	0.20175159
179	0x3e38ff93	0.18066244
180	0x3bd04567	0.0063559297
181	0xbe4abc0b	-0.19798295
182	0xbd7cc44f	-0.061710652
183	0xbd89c6c4	-0.06727365
184	0x3ddf6825	0.10908536
185	0xbdec45df	-0.11536764
186	0x3ccda890	0.02510479
187	0xbc83bb7b	-0.016080609
188	0xbe099d88	-0.13439
189	0x3e7c467e	0.24636266
190	0x3e255c37	0.16148458
191	0x3dee099b	0.11622926
192	0xbe13c3ec	-0.14430207
193	0xbe137d84	-0.14403349
194	0xbdda6163	-0.10663106
195	0xbe06c3d7	-0.13160644
196	0x3a29a1d4	0.00064709526
197	0x3d7d6f9b	0.061874013
198	0x3e83f8c1	0.25775722
199	0xbb7c63c4	-0.0038511613
200	0x3e6a5611	0.22884394
201	0x3e3b2786	0.18276796
202	0xbd0ab53a	-0.033864237
203	0xbe130287	-0.14356433
204	0xbce2da72	-0.027692053
205	0x3ddd5da9	0.1080888
206	0xbd3cdf73	-0.046111535
207	0x3e5f56eb	0.218105
208	0x3e0fb54b	0.14034002
209	0x3d346ad7	0.044047203
210	0x3d2095d7	0.0392054
211	0xbe3ce756	-0.18447623
212	0xbd87f9cb	-0.06639441
213	0xbe3326bb	-0.17495243
214	0xbe7a0f6d	-0.24419947
215	0xbd5e55af	-0.054280933
216	0x3d0eb717	0.034842577
217	0xbe0fd5ee	-0.14046451
218	0x3dfb7026	0.1227725
219	0xbd9f9ee6	-0.07793979
220	0x3dc06c31	0.09395636
221	0xbe0916b7	-0.13387571
222	0x3dc8d139	0.09805531
223	0xbe0175ca	-0.12642589
224	0x3d9a7f4f	0.075438134
225	0xbe481f1a	-0.19543114
226	0xbe46db32	-0.19419554
227	0x3dec0ada	0.11525507
228	0xbd578203	-0.052614223
229	0xbe5f4b94	-0.21806175
230	0xbc5d264a	-0.013497898
231	0x3e20359d	0.15645452
232	0x3d481822	0.04885114
233	0xbdbbaf06	-0.091642424
234	0x3c081ca0	0.008307606
235	0xbe2c5944	-0.16830927
236	0xbd5231e5	-0.051317114
237	0xbe37cdfa	-0.17949668
238	0xbc630e95	-0.013858457
239	0xbe2e84aa	-0.17042795
240	0x3db38b73	0.08766832
241	0x3dcee822	0.101028696
242	0xbd769256	-0.06019815
243	0xbddbf752	-0.10740532
244	0xbe336319	-0.17518272
245	0xbe531c58	-0.20616281
246	0x3d34d308	0.044146568
247	0xbce5c1e5	-0.028046558
248	0xbdd78f36	-0.10525362
249	0x3e826d47	0.25473997
250	0x3dae4eaf	0.085111015
251	0xbe15e0e0	-0.14636564
252	0x3e18e580	0.14931297
253	0xbda7be56	-0.081906006
254	0xbe10f245	-0.14154918
255	0xbc1f9b71	-0.00974165

conv1.bias f4 [16]
0	0xbe49e926	-0.19717845
1	0xbe44c5cf	-0.19216083
2	0x3dcfe744	0.10151532
3	0x3d5d088c	0.05396323
4	0x3e4c0362	0.19923165
5	0x3cfafe8b	0.030638954
6	0xbdd44317	-0.10364359
7	0xbe3ce363	-0.18446116
8	0x3f0d268c	0.5513694
9	0x3e15dd1d	0.1463513
10	0x3de4587d	0.1114969
11	0xbe9fec83	-0.31235132
12	0xbe0e634e	-0.13905069
13	0xbd2345c0	-0.03986144
14	0xbe6f5875	-0.23373587
15	0x3ec137d1	0.37737897

conv2.weight f4 [16, 16, 3, 3]
0	0xbdb49d97	-0.088191204
1	0xbd4923a0	-0.04910624
2	0xbda43591	-0.080180295
3	0xbce47cf7	-0.02789162
4	0xbd097390	-0.033557475
5	0xbd73e76c	-0.059546873
6	0x3da12ab3	0.07869472
7	0x3d4d6e72	0.050154157
8	0x3d8394f5	0.06424896
9	0x3d08f116	0.033433042
10	0x3d335f7b	0.04379223
11	0x3dafba6d	0.0858048
12	0xbc15cbca	-0.009142825
13	0x3cb5da4a	0.022198815
14	0x3d30f847	0.043205526
15	0xbdf356af	-0.11881768
16	0xbdd7d5d2	-0.1053883
17	0xbdc5242f	-0.09626042
18	0xbb32a61f	-0.002725966
19	0x3cbf0044	0.023315556
20	0x3d460627	0.04834571
21	0xbd1f3e30	-0.038877666
22	0xbcbe0369	-0.023194985
23	0xbc4304b5	-0.011902978
24	0xbdfd130c	-0.123571485
25	0xbdac4360	-0.08411288
26	0xbd8464c0	-0.06464529
27	0xbbae1dd8	-0.0053136162
28	0x3cc80e31	0.02442083
29	0x3d88aadc	0.06673214
30	0x3cb0dcfc	0.021589749
31	0x3cdbcae3	0.026830142
32	0x3d5890c4	0.052872434
33	0x3d499a76	0.04921957
34	0x3d1af016	0.03782662
35	0x3d866e09	0.06563956
36	0x3c697a95	0.014250417
37	0x3ca94136	0.020660978
38	0x3dad1db3	0.0845293
39	0x3cb69129	0.022286015
40	0xbc2c51db	-0.010517563
41	0x3d918395	0.071051754
42	0x3d4c10fb	0.04982088
43	0x3cca4e4f	0.024695544
44	0x3d8c3be3	0.0684736
45	0xbdaf3837	-0.08555644
46	0xbdceeb91	-0.101035245
47	0xbe0698dd	-0.1314425
48	0xbd30603b	-0.043060523
49	0xbceceb80	-0.028920889
50	0xbd1c905a	-0.038223602
51	0x3d84e0d9	0.06488199
52	0x3d9890ab	0.07449468
53	0x3d91e865	0.07124404
54	0xbd04107d	-0.032242287
55	0xbd05df58	-0.0326837
56	0xbc5c980e	-0.013463987
57	0x3b05a310	0.0020391382
58	0xbc11c53b	-0.008897121
59	0xbc8b8967	-0.017033292
60	0x3d910fa3	0.070830606
61	0x3d45c2b7	0.048281398
62	0x3d8d3bb4	0.06896153
63	0x3dc9b3bf	0.09848737
64	0x3da21d36	0.07915728
65	0x3d93b7fd	0.07212827
66	0x3b0474e8	0.0020211283
67	0x3c19c3b6	0.00938504
68	0xbbc9f7da	-0.0061635794
69	0xbdc99040	-0.09841967
70	0xbdc51250	-0.096226335
71	0xbd7b595c	-0.061364517
72	0xbb2c6e36	-0.0026310808
73	0xbcde2fb6	-0.02712236
74	0xbcc8e4cd	-0.024523163
75	0xba21e340	-0.00061755255
76	0xbc8229df	-0.015889106
77	0xbd173ed9	-0.03692517
78	0xbd316036	-0.043304645
79	0xbcb45596	-0.022013467
80	0x3d5fff04	0.05468656
81	0x3c1a5533	0.009419727
82	0xbd2903c5	-0.04126336
83	0xbda10d32	-0.07863845
84	0xbced934a	-0.029000897
85	0xba88e724	-0.0010444862
86	0xbd8f81c6	-0.07007174
87	0x3cb45c63	0.02201671
88	0xbc9d4027	-0.01919563
89	0xbd5e4afe	-0.054270737
90	0x3d947e72	0.0725068
91	0x3cbae94b	0.02281632
92	0x3d6ab2ee	0.057299547
93	0xbbd7c5c8	-0.0065848567
94	0x3b48a17a	0.0030613826
95	0x3cd42391	0.025895866
96	0xbdb0bcb4	-0.08629742
97	0xbda96949	-0.08272035
98	0xbda2d2b3	-0.07950344
99	0x3dd97703	0.10618403
100	0x3d302d9f	0.043012258
101	0x3cffaabb	0.03120934
102	0x3d94370e	0.07237063
103	0xbc86d839	-0.016460525
104	0x3c62c88f	0.013841762
105	0xbcccc355	-0.024995485
106	0x3cd7d138	0.02634488
107	0x3c120771	0.008912907
108	0x3d81a055	0.06329409
109	0x3d585501	0.05281544
110	0x3da1b04f	0.07894956
111	0x3d8fc86e	0.07020651
112	0x3d0075cd	0.031362344
113	0x3dc36a73	0.09541788
114	0x3d089ac1	0.03335071
115	0x3dd26cac	0.10274634
116	0x3d8b130f	0.067907445
117	0xbcc349ec	-0.02383896
118	0xbcdf321e	-0.027245577
119	0xbd9f61ea	-0.077823475
120	0x3d518aa6	0.051157616
121	0x3a2227b0	0.00061857235
122	0xbcd6474b	-0.026157042
123	0x3e30d059	0.17266978
124	0x3e126675	0.14296897
125	0x3e235e16	0.1595386
126	0x3d5677cd	0.052360345
127	0x3c1a973d	0.009435472
128	0x3cca9870	0.024730891
129	0x3d4f6d7f	0.050641533
130	0x3c8aab08	0.016927257
131	0x3b288535	0.0025714163
132	0x3c7a1cd8	0.015265666
133	0x3cc45f8a	0.023971338
134	0xbb929830	-0.0044737086
135	0xbcf35942	-0.029705647
136	0xbc9871ae	-0.018608894
137	0x3d180b61	0.037120227
138	0xbc6d0ee0	-0.0144688785
139	0xbb041a6d	-0.0020157353
140	0xbc2cf1c4	-0.010555688
141	0xbd9fe1c9	-0.07806737
142	0xbd373be1	-0.04473484
143	0xbd081d9e	-0.03323137
144	0xbc6f6bd5	-0.0146131115
145	0xbdba57c1	-0.09098769
146	0xbdd86fed	-0.10568223
147	0xbe007b02	-0.12546924
148	0xbe2936da	-0.1652483
149	0xbe5fd750	-0.21859479
150	0xbdb91c3c	-0.090385884
151	0xbde68dcc	-0.11257514
152	0xbe127e48	-0.14305985
153	0x3e4d9d5f	0.20079564
154	0x3e7b54b2	0.24544027
155	0x3e442e5a	0.19158307
156	0x3e8117d4	0.25213492
157	0x3e9f2641	0.31083873
158	0x3e9e8d4a	0.3096717
159	0x3e0058c1	0.12533857
160	0x3e1630ff	0.14667128
161	0x3e5daf55	0.21648915
162	0x3dd6cd16	0.10488336
163	0x3bce6ea3	0.00629981
164	0xbd05af0b	-0.032637637
165	0x3e053f50	0.13012433
166	0x3e0c5094	0.13702613
167	0x3d5fe4b5	0.05466147
168	0xbb953519	-0.004553449
169	0x3da27b0d	0.07933626
170	0x3df12639	0.117748685
171	0x3d26e925	0.040749688
172	0x3c0bfe8a	0.008544574
173	0xbd68fdf3	-0.05688281
174	0x3c411f24	0.01178721
175	0x3c872eb2	0.016501758
176	0xbcff21c0	-0.031144023
177	0xbccaaec3	-0.024741536
178	0x3c8917bd	0.016734952
179	0x3d0c4f90	0.034255564
180	0xbd245e44	-0.04012896
181	0x3d6880c8	0.05676344
182	0x3ba987f5	0.005173678
183	0xbd8855ed	-0.06657014
184	0x3d08d4ba	0.033405997
185	0xbc3b4e8b	-0.0114323
186	0xbde00be9	-0.10939772
187	0xbdaee6d2	-0.08540119
188	0xbdeaf104	-0.11471751
189	0xbe443c94	-0.19163734
190	0xbe2b31d7	-0.16718231
191	0xbe19c916	-0.15018114
192	0xbdf84c05	-0.121238746
193	0xbe17fe49	-0.14843096
194	0xbe2ec44f	-0.17067073
195	0xbd86ee0c	-0.065883726
196	0xbe0d0bb3	-0.13773994
197	0xbd758ec7	-0.059950616
198	0xbbc7df01	-0.006099582
199	0x3c1341dd	0.008987871
200	0x3bf3877a	0.0074319215
201	0xbd311882	-0.043236263
202	0xbc3a6bdf	-0.011378258
203	0xbaf8e691	-0.0018989613
204	0xbd7d3a2a	-0.061823048
205	0xbc9ef626	-0.019404482
206	0xbb932c14	-0.0044913385
207	0x3de3d77a	0.11125083
208	0x3ddaddff	0.10686874
209	0x3df65d05	0.12029461
210	0x3e500b4d	0.20316811
211	0x3e2c1e0d	0.16808338
212	0x3e816405	0.2527162
213	0x3db4e271	0.08832253
214	0x3da76c79	0.081749864
215	0x3e034d25	0.12822397
216	0xbd507a35	-0.050897796
217	0xbde69442	-0.11258747
218	0xbe147326	-0.1449705
219	0xbde157db	-0.11003085
220	0xbe017edf	-0.12646054
221	0xbdaa1968	-0.08305627
222	0xbc8db8e6	-0.01730008
223	0x3d7328a7	0.05936494
224	0x3bc78eb0	0.0060900077
225	0xbdde37f0	-0.10850513
226	0xbd99891d	-0.074968554
227	0x3c282938	0.010263734
228	0xbd161e5a	-0.03665004
229	0xbbafd45a	-0.0053658905
230	0xbd6e02da	-0.05810819
231	0x3b91cdb6	0.0044495715
232	0x3d244116	0.040101133
233	0x3c438fbd	0.011936125
234	0x3d217067	0.039413836
235	0x3d9eccf8	0.077539384
236	0x3d8be95d	0.0683162
237	0x3dd56c92	0.10421099
238	0x3e0114e3	0.12605624
239	0x3e0fc192	0.14038685
240	0x3ddd4762	0.10804631
241	0x3e0a42a1	0.1350198
242	0x3d940667	0.07227784
243	0x3d9144eb	0.07093223
244	0x3dff7e16	0.12475221
245	0x3e1b19b3	0.15146522
246	0x3d96e658	0.07368153
247	0x3e0dc0a2	0.13843015
248	0x3df5e4b9	0.12006516
249	0x3cf3ec84	0.029775865
250	0x3d3cc27e	0.04608392
251	0xbbabf1a9	-0.005247314
252	0xbc401e81	-0.011726023
253	0x3ccd1568	0.025034621
254	0xbcbd5763	-0.023112958
255	0x3c9b4a22	0.018956248

conv2.bias f4 [16]
0	0x3de3ecf3	0.11129179
1	0xbd8ebc7c	-0.06969544
2	0xbdbe9a1b	-0.09306737
3	0x3dc62320	0.09674668
4	0x3c4e6a18	0.012598537
5	0x3d875e43	0.06609776
6	0xbdc086f6	-0.09400742
7	0xbcdef132	-0.02721462
8	0xbd3344d0	-0.043766797
9	0x3d5ecfe5	0.054397482
10	0xbd3acc90	-0.045605242
11	0x3d75659a	0.059911348
12	0x3ce66bde	0.028127607
13	0xbd1d7a06	-0.03844645
14	0xbe0f1004	-0.13970953
15	0x3d176002	0.036956795

conv3.weight f4 [32, 16, 3, 3]
0	0x3d20801e	0.039184682
1	0x3c6a484c	0.0142994635
2	0x3d223069	0.03959695
3	0x3de5675c	0.11201355
4	0x3db761b0	0.08954179
5	0x3d120d97	0.03565749
6	0x3deb8e9e	0.115018114
7	0x3d80045a	0.0625083
8	0x3d9a4421	0.07532526
9	0x3c958d78	0.018255934
10	0x3db65f02	0.0890484
11	0x3d97be1b	0.074093066
12	0x3d5eb17f	0.054368492
13	0xbd1fe256	-0.03903421
14	0xbce794d3	-0.028269207
15	0x3d39a348	0.045321733
16	0xbddfc8bc	-0.10926959
17	0x3badb808	0.0053014793
18	0x3d30a0e8	0.043122202
19	0xbe01b4c9	-0.1266662
20	0xbd4909d0	-0.049081624
21	0xbcbc76a4	-0.023005791
22	0xbe1d5441	-0.15364172
23	0xbe4734f9	-0.19453801
24	0x3be998c7	0.007128808
25	0xbd907e51	-0.07055343
26	0xbe11910b	-0.14215486
27	0xbd8768c1	-0.06611777
28	0x3cad739e	0.021173295
29	0x3ccf9cb0	0.02534327
30	0xbc8b4e0b	-0.017004987
31	0x3d83e4ed	0.064401485
32	0x3dd045a3	0.10169532
33	0x3d8ddefd	0.06927297
34	0x3bfdeb4c	0.007748997
35	0x3dbfab57	0.09358852
36	0xbd9b7550	-0.07590735
37	0xbe47cebb	-0.19512455
38	0xbda259e0	-0.079272985
39	0xbdfe96b5	-0.12431089
40	0xbd952ce9	-0.072839566
41	0x3d29ed9a	0.04148636
42	0x3bc5b09b	0.006033016
43	0x3db6e773	0.08930864
44	0x3e48e227	0.1961752
45	0xbca85ebf	-0.020552991
46	0xbe29c9f8	-0.16580951
47	0xbdf6d273	-0.12051859
48	0xbcf7d3b9	-0.030252324
49	0xbd8dd2b9	-0.06924958
50	0xbd130880	-0.035896778
51	0x3d9c340f	0.07627117
52	0x3e2fe125	0.1717573
53	0x3e421920	0.18954897
54	0x3df36a40	0.118855
55	0x3d603ad9	0.05474362
56	0x3b2dd71d	0.0026525923
57	0x3de4a098	0.11163443
58	0xbde3dc1b	-0.11125966
59	0xbde5d75b	-0.112227164
60	0x3d47ccde	0.04877936
61	0xbdf27607	-0.11838918
62	0xbe336c2e	-0.17521736
63	0xbd81bdad	-0.06335006
64	0xbd143020	-0.036178708
65	0x3bde1902	0.0067778835
66	0xbb69499a	-0.0035596848
67	0xbb218e7b	-0.0024651575
68	0x3d7fff7e	0.062499516
69	0x3d97cc82	0.07412054
70	0xba863598	-0.0010239361
71	0x3de2b129	0.11068947
72	0x3d77bfec	0.060485765
73	0xbde71c6e	-0.112847194
74	0xbde7a837	-0.11311381
75	0x3dd99f90	0.10626137
76	0x3c78f3c0	0.015194833
77	0xbd2acdf9	-0.041700337
78	0x3e16b86a	0.14718786
79	0x3e38d945	0.18051632
80	0x3e2c1ba5	0.1680742
81	0xbd98ef92	-0.074675694
82	0xbe25a681	-0.16176797
83	0xbd902b77	-0.0703954
84	0xbdb20895	-0.08693043
85	0xbdcccf03	-0.10000422
86	0x3d2f1598	0.042745203
87	0xbd5a07ed	-0.053230215
88	0x3d75203c	0.059845194
89	0x3df6ce64	0.12051085
90	0x3daa80b9	0.08325333
91	0x3dd9f8fe	0.106431946
92	0x3dd92020	0.106018305
93	0x3db0363d	0.08604095
94	0x3c2fcc45	0.010729854
95	0x3ca44164	0.020050712
96	0x3dcd37d8	0.10020417
97	0xbdae0c4a	-0.08498438
98	0xbd48f9e9	-0.049066458
99	0xbe07c62e	-0.13259193
100	0xbe46b61e	-0.1940541
101	0xbde3b545	-0.11118559
102	0xbdc5bdfd	-0.09655378
103	0x3d412c26	0.047161244
104	0x3dd403a6	0.103522584
105	0x3d01eb46	0.031718515
106	0x3e05c973	0.13065128
107	0x3e4b18ab	0.19833629
108	0xbe02da83	-0.12778668
109	0xbe3d134c	-0.18464392
110	0xbc9adff8	-0.018905625
111	0xbe766c5c	-0.24064773
112	0xbdf2057f	-0.118174545
113	0x3d971b3e	0.07378243
114	0xbdcce0bf	-0.100038044
115	0x3b9eecff	0.0048500295
116	0x3e09f468	0.1347214
117	0xbc18c304	-0.009323839
118	0x3c99af7e	0.018760439
119	0xbd394fde	-0.045242183
120	0xbb998508	-0.004685048
121	0xbde4d74b	-0.111738764
122	0xbe0d9738	-0.13827217
123	0x3d97edb6	0.07418387
124	0xbce4be49	-0.027922766
125	0x3c1cae5c	0.009563055
126	0x3d99f82e	0.0751804
127	0xbd5eccf4	-0.054394677
128	0xbe321361	-0.17390205
129	0x3d21b5c9	0.039480004
130	0xbe047a4b	-0.12937276
131	0xbe95694d	-0.291819
132	0x3dd3eeb8	0.10348266
133	0x3b505072	0.003178623
134	0xbde0933f	-0.10965585
135	0xbdd95f7a	-0.10613914
136	0xbe6dc5ed	-0.23220034
137	0xbd4d2de8	-0.050092608
138	0xbe326f94	-0.17425376
139	0xbe123cbf	-0.14280985
140	0xbcf03bd4	-0.029325403
141	0xbc858648	-0.016299382
142	0x3d3872c4	0.045031324
143	0x3ddd3bd0	0.10802424
144	0x3d6a1c5b	0.057155948
145	0xbc5bfabf	-0.013426482
146	0xbd3ab880	-0.04558611
147	0xbc8aae8a	-0.01692893
148	0x3d041bc0	0.032253027
149	0x3b75e311	0.0037519375
150	0x3d812071	0.06305016
151	0xba466668	-0.00075683603
152	0xbc5e53c3	-0.013569775
153	0xbdfa0e14	-0.122097164
154	0x3cedc313	0.029023683
155	0x3e32a398	0.17445219
156	0x3e4b1530	0.19832301
157	0x3e4ef153	0.20209245
158	0x3e12ab07	0.14323054
159	0x3e46f119	0.19427909
160	0x3dcade53	0.09905686
161	0xbd454d3b	-0.048169356
162	0x3e0c62b4	0.13709527
163	0x3e208f54	0.15679675
164	0x3d9c21a2	0.076236024
165	0x3e10c78f	0.14138626
166	0x3d9d1876	0.07670681
167	0x3d95dae9	0.073171444
168	0x3d8454ce	0.06461488
169	0x3d988ba2	0.07448508
170	0x3d48c7c3	0.049018633
171	0xbd726cdc	-0.059185848
172	0x3d57a92f	0.05265158
173	0x3e220255	0.15821202
174	0x3d999fbe	0.075011715
175	0x3e3147fe	0.17312619
176	0x3e2b817d	0.16748615
177	0x3db9c079	0.09069914
178	0x3d5acabe	0.053416006
179	0xbda06955	-0.078325905
180	0x3e525316	0.20539507
181	0x3e2cf109	0.16888823
182	0xbbc23b7d	-0.0059275017
183	0x3ceb8444	0.028749593
184	0x3ddba612	0.10725035
185	0x3e27f3a9	0.16401543
186	0x3c05f82f	0.008176847
187	0x3de884e1	0.1135347
188	0x3e77ad8c	0.24187297
189	0x3e637253	0.2221158
190	0x3e26a584	0.16274077
191	0xbcc75b2a	-0.024335463
192	0x3d50ba02	0.05095864
193	0x3d87f5d9	0.066386886
194	0x3db7076d	0.08936963
195	0xbc468470	-0.0121165365
196	0x3d73c7a6	0.05951657
197	0x3e54cbd7	0.20780884
198	0x3d403817	0.04692849
199	0x3d1559bf	0.03646254
200	0x3d879474	0.06620112
201	0x3e6d7a2d	0.23191138
202	0x3e678f7f	0.22613333
203	0x3df03178	0.117281854
204	0x3e322478	0.17396724
205	0x3e36433b	0.17799084
206	0x3da2db66	0.07952003
207	0xbc772de6	-0.015086627
208	0x3d48bbb7	0.049007144
209	0x3e0e62d6	0.1390489
210	0x3da5361c	0.08066961
211	0x3e3076fe	0.17232892
212	0x3e2a909e	0.1665673
213	0x3dc7a6ad	0.09748588
214	0x3dbe663a	0.09296842
215	0xbd60e10b	-0.054902118
216	0x3e754f2e	0.23955986
217	0x3e0721ad	0.1319644
218	0xbd128c29	-0.0357782
219	0x3d9fbca4	0.07799652
220	0x3d31f381	0.043445114
221	0x3d93c180	0.072146416
222	0xbad0477e	-0.0015890447
223	0x3d5a954f	0.053365048
224	0x3e12ed0e	0.14348242
225	0x3dcfda6b	0.10149082
226	0x3e1807cb	0.14846723
227	0x3c4c3f93	0.012466329
228	0xbc0bdc03	-0.008536342
229	0x3d85382e	0.06504856
230	0x3e2e175e	0.17001101
231	0x3be8ab68	0.0071005113
232	0x3d72ebb1	0.059306804
233	0x3e4a0752	0.19729355
234	0xbdacfcde	-0.08446668
235	0x3b8604ab	0.004089912
236	0x3e2bc70c	0.16775149
237	0x3e4b406d	0.19848795
238	0x3e537632	0.20650557
239	0x3e07fad3	0.13279276
240	0x3e6f48d0	0.2336762
241	0x3e051c1b	0.12999003
242	0xbce279b2	-0.02764592
243	0x3db8c081	0.09021092
244	0x3e128364	0.14307934
245	0x3daa2729	0.083082505
246	0x3c2c2a2c	0.010508101
247	0x3dce0d84	0.10061172
248	0x3e8aa9ce	0.27082676
249	0x3d0f5ed8	0.03500256
250	0x3e05fc80	0.13084602
251	0x3dae4293	0.08508792
252	0x3e053b15	0.1301082
253	0x3e67fff0	0.22656226
254	0x3db89d24	0.09014347
255	0x3c989185	0.018624077

conv3.bias f4 [32]
0	0x3e1d9033	0.15387039
1	0x3daee648	0.085400164
2	0x3b5e3d2b	0.003391097
3	0x3cb2a58f	0.02180746
4	0x3c7e0116	0.015503189
5	0xbd291978	-0.041284055
6	0x3dd98d42	0.10622646
7	0x3de1c6f0	0.110242724
8	0x3bc9048f	0.0061345766
9	0xbc0aa3c5	-0.008461897
10	0xbdcae7b6	-0.099074766
11	0x3df2d2e6	0.11856632
12	0xbb125dd9	-0.002233377
13	0x3d5f3325	0.054492135
14	0x39c78f37	0.0003806294
15	0xbc3058ab	-0.010763328
16	0xbdcb4ebb	-0.09927126
17	0x3cf9d108	0.030495182
18	0x3d703fed	0.058654714
19	0xbc923cde	-0.01785129
20	0xbd27ad52	-0.040936776
21	0x3bb437ee	0.0054998314
22	0xbd0a3901	-0.03374577
23	0x3d9c3beb	0.07628616
24	0xbe03a923	-0.1285749
25	0x3e219dd8	0.15782869
26	0x3dd1ba96	0.102406666
27	0x3d6db063	0.058029544
28	0x3d4f5201	0.050615314
29	0xbd790abe	-0.06080126
30	0x3cc85530	0.024454683
31	0x3d208919	0.039193247

conv4.weight f4 [32, 32, 3, 3]
0	0xbd4b2f28	-0.04960552
1	0xbd70dbde	-0.05880343
2	0xbd9a2083	-0.07525732
3	0x3d9654b0	0.073403716
4	0x3dc1c7c3	0.0946193
5	0x3d36e78b	0.04465441
6	0xbd2923b1	-0.041293804
7	0xbd1fcafe	-0.039011948
8	0xbdd9bcbd	-0.10631702
9	0xbe1e2efe	-0.15447614
10	0xbda1d54e	-0.07902013
11	0xbcb7fad1	-0.022458466
12	0xbe2019d7	-0.15634857
13	0xbda894f6	-0.08231537
14	0xbd14ccb8	-0.036328048
15	0xbe2993e3	-0.1656032
16	0xbe065ad5	-0.13120587
17	0xbe2b546f	-0.16731428
18	0xbd9a09ff	-0.07521438
19	0xbd45f6f5	-0.04833122
20	0x3c43ecab	0.0119582815
21	0xbcc1a0d0	-0.023636252
22	0x3da9b19f	0.08285832
23	0x3dcd1a8f	0.10014831
24	0xbdb24ff9	-0.0870666
25	0x3d2a1411	0.041523043
26	0xbb551b4b	-0.0032517489
27	0x3cfa6e93	0.030570304
28	0x3d157c87	0.03649571
29	0x3d686805	0.056739826
30	0xbd89fce2	-0.06737687
31	0xbe03ceb4	-0.1287182
32	0xbd97f69c	-0.07420084
33	0x3cdd423f	0.027009128
34	0xbd2a8ff4	-0.04164119
35	0x3da533e5	0.08066539
36	0x3a162982	0.0005728231
37	0x3cffac1b	0.031209996
38	0x3dda9bfe	0.106742844
39	0xbd1be2f3	-0.038058233
40	0xbd59064c	-0.05298452
41	0x3d2bba52	0.041925736
42	0x3d260e27	0.04054084
43	0x387d8c39	6.0450493e-05
44	0x3dd39fe9	0.10333235
45	0xbd4b2acd	-0.049601365
46	0xbc951bbc	-0.018201701
47	0x3d3e41cf	0.04644948
48	0xbd050084	-0.032471195
49	0x3cbf6462	0.023363296
50	0x3ddbf832	0.10740699
51	0xbdd86025	-0.10565213
52	0xbe0da2b9	-0.13831605
53	0xbd4f9ad3	-0.05068476
54	0x3c31f588	0.010861762
55	0x3bd98829	0.006638546
56	0xbc9144c8	-0.017732993
57	0xbc89fb44	-0.016843446
58	0xbc80e45b	-0.015733888
59	0xbb907a4b	-0.0044091097
60	0xbc705076	-0.014667621
61	0x3c63ac21	0.013896019
62	0x3c56af62	0.013103338
63	0xbda1b166	-0.07895164
64	0xbdd3db82	-0.10344602
65	0xbd86fbf9	-0.06591029
66	0xbc979fd0	-0.018508822
67	0xbc02f2b0	-0.0079924315
68	0xbbafbbdc	-0.0053629708
69	0xbd81e9af	-0.063434
70	0x3c63dba5	0.013907348
71	0xbd0deebc	-0.034651503
72	0xbdd9726b	-0.106175266
73	0xbcb61c79	-0.022230374
74	0x3d498505	0.049199123
75	0xbe4bf7fd	-0.19918819
76	0xbd8d9ec5	-0.069150485
77	0x3cb64437	0.022249324
78	0xbe44dfcf	-0.19226001
79	0xbd738980	-0.059457302
80	0x3cbe7244	0.023247845
81	0xbc47b6c6	-0.012189573
82	0xbd3bb36a	-0.0458254
83	0xbd650691	-0.055914465
84	0xbb672051	-0.0035267065
85	0xbcca7955	-0.024716059
86	0xbd916c75	-0.07100765
87	0x3dfc8327	0.12329703
88	0x3d9b1614	0.075725704
89	0x3d9be537	0.07612079
90	0x3d96e820	0.07368493
91	0x3e25589d	0.16147085
92	0x3e568cab	0.20952098
93	0xbcf28bf8	-0.029607758
94	0xbd859a3a	-0.06523557
95	0xbd150776	-0.03638407
96	0xbd0e5459	-0.03474841
97	0xbe14dbcd	-0.14536972
98	0xbd4e37eb	-0.050346296
99	0x39c6cf9c	0.00037920184
100	0xbd76cdd5	-0.06025489
101	0xbd7f1921	-0.062279824
102	0x3d934ab2	0.071919814
103	0x3db57442	0.08860065
104	0x3d0778a4	0.033074036
105	0xbd6d597c	-0.057946667
106	0xbb82c2ac	-0.003990492
107	0x39212100	0.0001536645
108	0xbd138109	-0.03601173
109	0xbdd64153	-0.10461678
110	0xbe14881f	-0.14505051
111	0xbd045868	-0.032310873
112	0xbd5d6a2a	-0.054056324
113	0xbdadc099	-0.08484001
114	0xbd0648fe	-0.032784455
115	0xbc75b6f1	-0.01499723
116	0xbd53523c	-0.051592097
117	0xbd617742	-0.055045374
118	0xbd5d461d	-0.054021943
119	0xbc8d9fdf	-0.017288147
120	0xbd90930e	-0.070592985
121	0xbc4dffaa	-0.012573162
122	0x3c831a67	0.0160038
123	0xbd43187e	-0.04763078
124	0x3d084940	0.03327298
125	0x3cb63a50	0.022244602
126	0xbdb42595	-0.08796231
127	0x3cb5b7b1	0.022182317
128	0x3dcd7f8e	0.10034095
129	0xbdfafabd	-0.12254856
130	0xbbf18409	-0.007370476
131	0x3db2d7ec	0.0873259
132	0xbe68921d	-0.22711988
133	0xbdb4ed4e	-0.08834325
134	0x3d943b02	0.07237817
135	0x3c39fb3c	0.011351403
136	0xbc7e9470	-0.01553832
137	0xbd4c70b9	-0.04991219
138	0xbc9aae74	-0.018882014
139	0xbdd22bb9	-0.10262246
140	0xbd605b33	-0.054774474
141	0x3cc55951	0.024090441
142	0x3c30dbe0	0.01079461
143	0x3d87881d	0.066177584
144	0x3c6c3996	0.014418026
145	0x3c67e069	0.014152625
146	0x3d60aaf6	0.05485054
147	0x3d3bf450	0.04588729
148	0xbc53af17	-0.012920163
149	0x3c703c76	0.0146628525
150	0x3df5ad0c	0.11995897
151	0x3d548a01	0.051889423
152	0x3e0ba495	0.13637002
153	0x3cb98533	0.022646522
154	0xbd2f4461	-0.04278982
155	0xbd53c3ee	-0.051700525
156	0x3d22f174	0.03978105
157	0xbb1b003b	-0.002365126
158	0x3d507e54	0.050901726
159	0xbbdae4cb	-0.0066801063
160	0x3b66d95c	0.003522477
161	0x3bac87a2	0.005265192
162	0x3bb3e5e3	0.005490051
163	0xbd99d793	-0.07511821
164	0xbdea5c7f	-0.114434235
165	0x3d81d17f	0.06338786
166	0xbd97b027	-0.07406645
167	0xbe15cb15	-0.14628251
168	0x3e631ce0	0.22178984
169	0x3d76d21f	0.06025898
170	0x3d6f0088	0.058350116
171	0x3cb3ffc0	0.021972537
172	0xbc60bc03	-0.0137167005
173	0x3bd47b21	0.0064844047
174	0x3de59a15	0.112110294
175	0x3d439e77	0.047758546
176	0x3e10d697	0.1414436
177	0xbd41ba2b	-0.047296684
178	0xbdf6860b	-0.120372854
179	0xbda449f3	-0.08021917
180	0x3dc8fcf7	0.09813874
181	0x3c9d5753	0.019206678
182	0x3c35d281	0.011097551
183	0x3dcc746e	0.09983145
184	0xbd14a45f	-0.03628957
185	0xbb8631ff	-0.0040953155
186	0x3e016db5	0.12639506
187	0x3d5f7ed6	0.05456432
188	0x3e062bf2	0.13102701
189	0x3d4e2308	0.050326377
190	0x3deb70f7	0.11496156
191	0x3dfb2f83	0.122649215
192	0x3c3e0083	0.011596802
193	0xbdcec532	-0.10096206
194	0xbdfca472	-0.12336053
195	0x3dda3bd7	0.10655945
196	0xbd7f9db8	-0.06240627
197	0xbd7f5387	-0.062335517
198	0x3dff9f0b	0.12481507
199	0x3d0426d5	0.032263596
200	0xbd95febd	-0.07323978
201	0x3e2e6df0	0.17034125
202	0x3de31096	0.11087148
203	0xbd707c7b	-0.058712464
204	0x3e3246ae	0.17409775
205	0x3de4c01e	0.11169456
206	0xbde1b6cc	-0.11021194
207	0xbc90a202	-0.017655376
208	0xbb5718fc	-0.0032821288
209	0xba4a4a56	-0.00077167654
210	0xbd30b0c2	-0.04313732
211	0xbc712fed	-0.014720899
212	0xbc4d35f9	-0.012525075
213	0xbdb8abac	-0.09017119
214	0xbdc7a5bb	-0.097484075
215	0xbde44c61	-0.111473806
216	0xbdd574ac	-0.10422644
217	0xbdc5ef32	-0.096647635
218	0xbdb40b39	-0.08791203
219	0xbcd41ff7	-0.025894148
220	0xbc255256	-0.010090431
221	0x3c3e7128	0.011623658
222	0xbdde6b02	-0.10860254
223	0xbda61051	-0.08108581
224	0xbdb2fbb0	-0.08739412
225	0xbca8dfc1	-0.020614507
226	0xbd7f51d0	-0.06233388
227	0xbd6c4201	-0.057680134
228	0x3bd471b9	0.0064832834
229	0x3c2709fa	0.01019525
230	0xbadce61a	-0.0016853244
231	0xbd9823fb	-0.07428738
232	0xbb928379	-0.004471239
233	0xbce5cc21	-0.028051438
234	0x3d88caef	0.066793315
235	0x3c5cf430	0.013485953
236	0xbccf8f69	-0.025336938
237	0x3d3a0be6	0.045421503
238	0xbe00524e	-0.12531397
239	0xbe078cb2	-0.13237265
240	0x3e07aa07	0.13248454
241	0x3d1296b4	0.035788253
242	0x3da209a7	0.07911997
243	0xbd81192e	-0.06303631
244	0xbaafc27e	-0.0013409404
245	0x3c642874	0.01392566
246	0xbe10c923	-0.14139228
247	0xbcb6d5e9	-0.022318797
248	0x3a5fc98b	0.0008536807
249	0xbe0234f2	-0.1271551
250	0xbca51bae	-0.0201548
251	0x3be86143	0.0070916726
252	0xbd86c45d	-0.06580422
253	0xbd290662	-0.041265853
254	0xbd6b25ed	-0.057409216
255	0xbd04ac8d	-0.03239112

conv4.bias f4 [32]
0	0xbdeace31	-0.11465109
1	0x3cf5be46	0.029997956
2	0xbc5f8114	-0.0136416145
3	0xbcde73ba	-0.027154792
4	0x3ba1661b	0.004925502
5	0x3be83373	0.0070862113
6	0xbc9fcef9	-0.019507872
7	0x3c6d2d09	0.014476069
8	0xbbd81239	-0.006593969
9	0xbd5ba6e4	-0.053625956
10	0x3ba2d13e	0.0049687913
11	0x3bd96b9f	0.006635144
12	0xbc5e6bfa	-0.013575548
13	0x3d2a0589	0.041509185
14	0xbd5d7fee	-0.05407708
15	0x3c8a400e	0.016876247
16	0xbaf64cf7	-0.0018791248
17	0x3d2e1896	0.042503916
18	0x3c679f91	0.014137165
19	0xbd9d8cff	-0.076929085
20	0x3c2b691a	0.01046207
21	0xbd01b83d	-0.031669844
22	0x3b5e651b	0.0033934775
23	0x3cbebd34	0.023283578
24	0xbb57f0c8	-0.0032949913
25	0x3d931aa2	0.07182814
26	0x3c6fcc69	0.0146361375
27	0xbc0bb421	-0.008526833
28	0x3cc17e04	0.02361966
29	0x3d36c28d	0.04461913
30	0xbc46ecdb	-0.012141432
31	0xbd1a56ed	-0.037680555

fc1.weight f4 [150, 896]
0	0x3d068177	0.03283831
1	0x3c231027	0.0099525815
2	0x3c92e262	0.017930213
3	0x3ba90a67	0.0051587108
4	0x3d357940	0.044305086
5	0x3c8a9871	0.016918393
6	0x3d049dd0	0.032377064
7	0x3d1ad62d	0.03780191
8	0x3d5dd228	0.0541555
9	0xbca996e4	-0.020701833
10	0x3d34e45c	0.044163093
11	0x3d869c01	0.06572724
12	0xbd227bcb	-0.03966884
13	0xbbd4ff85	-0.006500187
14	0x3c8393d2	0.016061697
15	0xbd0c6562	-0.034276374
16	0x3caa61df	0.020798622
17	0x3c360fb5	0.011112143
18	0x3b2b00f8	0.0026093107
19	0x3d06d926	0.032921933
20	0x3c8c9666	0.01716156
21	0x3cadccb4	0.021215774
22	0x3d185974	0.037194684
23	0x3acec558	0.0015775366
24	0x3da0b441	0.07846881
25	0x3d94b8a7	0.07261782
26	0x3cd2ddfc	0.025740616
27	0xbcd9471a	-0.026523162
28	0x3c6f605d	0.014610377
29	0xbc4f71fe	-0.012661455
30	0x3cf4bd64	0.029875465
31	0x3cb379ba	0.02190863
32	0x3ba14db2	0.004922592
33	0x3d1974d4	0.03746493
34	0x3be83f19	0.0070876
35	0x3d1fda08	0.03902629
36	0x3cc7701c	0.02434545
37	0x3cc5eb3c	0.02416002
38	0xbd056c18	-0.03257379
39	0x3d3c1f5b	0.04592834
40	0xbce63d80	-0.028105497
41	0x3caea2c9	0.021317856
42	0xbccc400e	-0.024932887
43	0xbc850917	-0.016239686
44	0x3c81a349	0.01582493
45	0x3b83c516	0.004021297
46	0xbc64b75c	-0.013959732
47	0xbd830896	-0.06398122
48	0xbcacc81f	-0.021091519
49	0xbd2bb952	-0.041924782
50	0x3d4285bf	0.04749083
51	0xbc865514	-0.01639799
52	0xbd3e9232	-0.04652614
53	0xbd0719e3	-0.032983672
54	0x3cd3773d	0.025813693
55	0xbc2bc38a	-0.010483632
56	0xbd966144	-0.07342771
57	0xbc6bce0b	-0.014392386
58	0x3bc6ded5	0.006069044
59	0xbd63170f	-0.055441912
60	0x3bca8093	0.006179878
61	0x3bde40bc	0.0067826193
62	0xbc949aca	-0.018140215
63	0xbc1f4b22	-0.009722503
64	0xbc97f720	-0.018550456
65	0xbcafa90e	-0.021442916
66	0xbc895e63	-0.01676864
67	0xbc59c4ac	-0.013291519
68	0x3abfa32d	0.0014620774
69	0x3c2f385d	0.01069459
70	0xbcdfa70d	-0.027301336
71	0x3cb560bd	0.022140855
72	0xbbb6412e	-0.0055619692
73	0xbc13131f	-0.008976727
74	0xbc425360	-0.011860698
75	0xbb8ac7c7	-0.004235241
76	0xbc1d936a	-0.009617666
77	0x3b574a6a	0.003285075
78	0xbc9250b9	-0.017860757
79	0x3c62b92e	0.013838096
80	0xbcfb2e96	-0.030661862
81	0xbbe096bb	-0.006853906
82	0xbb5eb1fa	-0.0033980594
83	0x3d3af583	0.045644294
84	0xbd7680a5	-0.06018128
85	0xbc7e329f	-0.015514999
86	0xbb22ee72	-0.0024861363
87	0xbdd70e23	-0.10500743
88	0x3d40e74f	0.047095593
89	0xbb921d62	-0.004459069
90	0xbb74aa9b	-0.0037333134
91	0x3b2a38b7	0.0025973746
92	0x3c42d08f	0.011890545
93	0x3cf3165c	0.029673748
94	0x3b9cb84c	0.004782712
95	0x3c8b7ab4	0.017026283
96	0x3cdf9589	0.027292984
97	0x3c0d6777	0.008630625
98	0x3c97b610	0.018519431
99	0x3d6efc92	0.05834634
100	0x3cdbd542	0.026835088
101	0x3c90f13f	0.01769316
102	0xbbc95442	-0.0061440775
103	0xbbef75f4	-0.0073077623
104	0x3cfe04b2	0.031008098
105	0x3c90274f	0.017596869
106	0x3be6dbdb	0.007045252
107	0x3cc71cd6	0.024305742
108	0xbb867cc6	-0.0041042296
109	0x39a988ac	0.0003233602
110	0x3afd3516	0.0019318189
111	0x3da7990c	0.08183488
112	0xbd2bdff0	-0.04196161
113	0xbd100c2f	-0.03516787
114	0xbc1152f9	-0.00886988
115	0xbce096e8	-0.027415708
116	0x3d1c4c38	0.038158625
117	0x3d067fa1	0.03283656
118	0xbc238015	-0.009979268
119	0xbb71dcb9	-0.0036905243
120	0xbc0ecd47	-0.008715934
121	0xbb06c8b2	-0.00205664
122	0x3ca42d09	0.020041006
123	0xba4982ce	-0.0007687033
124	0x3cb60b72	0.022222254
125	0x3d8fa5d1	0.07014049
126	0xbce2e817	-0.02769856
127	0xbbec1905	-0.007205131
128	0x3c459506	0.012059456
129	0x3c08cda6	0.008349812
130	0xbcfb2cf9	-0.030661093
131	0xbb5225f2	-0.0032066074
132	0xbd4d568d	-0.05013137
133	0x3c57064c	0.01312406
134	0xbbe78a96	-0.0070660813
135	0xbcd187e0	-0.025577486
136	0xbcc34c2b	-0.02384003
137	0x3b880b0c	0.0041517075
138	0xbca173ae	-0.01970848
139	0x3cf06e68	0.02934952
140	0xbc8d29c3	-0.017231828
141	0xbc4ed6c0	-0.012624443
142	0xbc1b39e1	-0.009474249
143	0xbc50eb18	-0.012751363
144	0xbbfd77f8	-0.0077352487
145	0xbc6451e4	-0.01393554
146	0xbca2c2cf	-0.019868283
147	0xbc007563	-0.007840487
148	0xba9db243	-0.0012031276
149	0x3b46c1d1	0.0030327926
150	0xbca92af1	-0.020650359
151	0x3bec82a2	0.007217721
152	0x3c108557	0.008820853
153	0x3c97c696	0.01852731
154	0xbb39be81	-0.002834231
155	0xbc3e9270	-0.011631593
156	0x3d0d4844	0.034492746
157	0x3c99a043	0.018753177
158	0xbbc9f245	-0.006162914
159	0xbcedd890	-0.02903393
160	0xbd2b9e06	-0.04189875
161	0xbc1b68c9	-0.009485432
162	0xbc0d6575	-0.008630146
163	0xbc920802	-0.017826084
164	0xbd570938	-0.052499026
165	0xbca2f1d9	-0.019890713
166	0xbc7f6696	-0.015588423
167	0x3cfa3410	0.030542403
168	0x3a80fd47	0.0009841108
169	0x3ca8c8c5	0.020603547
170	0x3bd53e51	0.006507673
171	0xbd96fdc3	-0.0737262
172	0xbc2064e9	-0.009789684
173	0xbcf6f22c	-0.030144773
174	0x3c82b90c	0.015957378
175	0xbd4885e7	-0.048955824
176	0xbc847ad9	-0.01617186
177	0xbc56ca96	-0.013109824
178	0x3d08c16c	0.033387586
179	0x3d2f44f1	0.042790357
180	0xbccf87a5	-0.025333235
181	0xbbb6fb92	-0.0055841887
182	0x3d078fcf	0.03309613
183	0x3da971e5	0.08273677
184	0xbd6afe3f	-0.057371374
185	0x3b0e0169	0.002166832
186	0x3d092996	0.033486925
187	0x3bd43ee4	0.0064772237
188	0xbc91b67f	-0.017787216
189	0xbccf9f73	-0.025344586
190	0x3c98a7e6	0.018634748
191	0xbbb7686f	-0.0055971663
192	0x3c8dbd2e	0.017302122
193	0x3ccc9af9	0.02497624
194	0xbc6d6ff3	-0.014492023
195	0x3caa16ad	0.020762766
196	0xbb0ad314	-0.0021182941
197	0xbcae2d53	-0.021261847
198	0xbc93bc84	-0.018034227
199	0xbd925342	-0.071447864
200	0xbc87d5c2	-0.01658142
201	0xbb4d2c41	-0.0031306895
202	0x3bb6ffa9	0.0055846763
203	0xbbdc1e88	-0.006717507
204	0xb93427c3	-0.0001718095
205	0xbc8eb177	-0.017418606
206	0x3c26a17d	0.010170338
207	0xbca246cd	-0.019809151
208	0xba731aab	-0.0009273688
209	0x3c6a530a	0.014302025
210	0x3d101d02	0.035183914
211	0x3d1cb001	0.038253788
212	0x3d1ad06d	0.037796427
213	0xbd80e49f	-0.06293606
214	0xbc190128	-0.009338655
215	0x3d2841a6	0.041078232
216	0xbc37c88d	-0.011217249
217	0x3c17d410	0.009266868
218	0xba1a0245	-0.0005874972
219	0x3c0fb3ed	0.008770925
220	0xbd54e224	-0.051973477
221	0xbc78860b	-0.015168677
222	0x3a834c22	0.0010017196
223	0x3cd14eb7	0.02555023
224	0x3beee2d3	0.007290223
225	0x3ca15a0c	0.019696258
226	0xbd6a94b2	-0.057270713
227	0xbdae043c	-0.084969014
228	0xbc516a18	-0.012781642
229	0xbce2e690	-0.027697831
230	0xbbcccd2f	-0.0062500457
231	0xbc5f55d4	-0.013631303
232	0xbc22c51c	-0.00993469
233	0xbac1b1da	-0.0014777735
234	0x3ca29824	0.019847937
235	0x3b801952	0.0039092684
236	0xbbf53f21	-0.007484332
237	0x3cf36f13	0.02971605
238	0x3b7084ed	0.0036700324
239	0x3c4ca8cd	0.012491417
240	0x3d19b428	0.037525326
241	0xbcd318ac	-0.0257686
242	0x3d52814e	0.051392846
243	0x3d4ee328	0.0505096
244	0xbacd4f39	-0.0015663869
245	0xb9674b96	-0.00022058035
246	0xbc774ba1	-0.015093715
247	0xbd08e946	-0.033425592
248	0xbbff50bf	-0.007791608
249	0x3b851f7a	0.00406259
250	0x3d04e7a8	0.032447487
251	0x3c3b60a9	0.01143662
252	0x38126edc	3.491236e-05
253	0x3cb359a3	0.021893328
254	0x3acfdf2d	0.0015859358
255	0xbd43ef7c	-0.047835812

fc1.bias f4 [150]
0	0xbc22d821	-0.009939224
1	0xbd0fd41c	-0.035114393
2	0xbc000dad	-0.007815761
3	0xbc97bd3e	-0.018522855
4	0xbd43654a	-0.04770402
5	0xbb866aa7	-0.0041020694
6	0xbb2c4c27	-0.0026290508
7	0x3d1206bb	0.03565095
8	0x3d48bd84	0.04900886
9	0x3cc0b5d3	0.0235242
10	0xbc19c78a	-0.009385953
11	0xbcf8f6c1	-0.030391099
12	0xbcfe23fe	-0.031023022
13	0xbbde604d	-0.0067863823
14	0xbcf46109	-0.029831426
15	0xbb978c57	-0.004624884
16	0x3cca70b9	0.024711953
17	0xbd56015a	-0.052247383
18	0xbc26c1a6	-0.010178005
19	0x3ce9ab1a	0.02852397
20	0x3cdd53b7	0.027017457
21	0xbbc8fc07	-0.0061335596
22	0xbc5a6aee	-0.013331158
23	0x3d25a433	0.040439796
24	0xbc1e95de	-0.009679286
25	0xbc8e7c72	-0.017393325
26	0x3ce8ef2c	0.028434359
27	0x3c620bb3	0.013796735
28	0xbca005d3	-0.019534027
29	0xbcd9994b	-0.026562354
30	0xbbbb294f	-0.0057117115
31	0x3c4b2ece	0.012401296
32	0x3ce7f501	0.02831507
33	0xbd329158	-0.04359564
34	0xbd01971f	-0.03163826
35	0xbc12fe1d	-0.008971718
36	0xbcb2ff4b	-0.021850249
37	0xbd0d447d	-0.034489144
38	0x3ce697ba	0.02814852
39	0xbc3ac479	-0.011399382
40	0x3bfb3bbe	0.007667034
41	0x3cb0e419	0.02159314
42	0xbc48a889	-0.012247213
43	0xbd01a687	-0.031652953
44	0xbc26eedc	-0.010188784
45	0xbb8790ac	-0.0041371193
46	0xbc7850b2	-0.015155958
47	0x39088100	0.00013018027
48	0xbc6e7bdf	-0.0145559
49	0x3c6dde05	0.014518266
50	0x3d166008	0.036712676
51	0x3c4655f0	0.01210545
52	0x3c3a5f99	0.011375331
53	0xbc189fbc	-0.009315427
54	0xbab8a94c	-0.001408854
55	0xbc68c442	-0.014206948
56	0x3bc7a1ef	0.006092302
57	0x3c4e703c	0.012600001
58	0x3cb361d8	0.021897241
59	0xbd8d6fdb	-0.069061
60	0x3c460b90	0.012087718
61	0x3c973c6f	0.018461434
62	0x3b346e1f	0.0027531458
63	0x3c891173	0.016731953
64	0xbbc3a1ca	-0.0059702145
65	0x3d1c1841	0.038109068
66	0xbd3901a9	-0.0451676
67	0x3d151ff3	0.036407422
68	0xbcb2451b	-0.021761468
69	0x3c79630b	0.015221368
70	0xbcb0dbdc	-0.021589212
71	0x3cd0a7f8	0.025470719
72	0x3d06851a	0.03284178
73	0xbbc9e5ba	-0.0061614187
74	0x3c9da611	0.019244226
75	0xbd1ecd05	-0.03876974
76	0xbc9b0413	-0.018922841
77	0xbc9d43cc	-0.019197367
78	0xbc49fe80	-0.012328744
79	0xbca239aa	-0.019802887
80	0xbc5a0e20	-0.013309032
81	0xbbe6a825	-0.0070390874
82	0x3c989523	0.018625801
83	0x3d126b58	0.035746902
84	0x3d0ebb54	0.03484662
85	0x3c9fcc5f	0.019506631
86	0xbd08d090	-0.033402026
87	0x3d0268af	0.031838115
88	0xbc5975c1	-0.013272704
89	0x3c85fc9b	0.016355803
90	0x3bde928a	0.006792371
91	0xbceb5f9e	-0.028732117
92	0x3d710f13	0.058852267
93	0x3b06850c	0.002052608
94	0xbcaa1faa	-0.020767052
95	0xbd467172	-0.048448034
96	0x3caf44cc	0.02139511
97	0x3c4cb1b2	0.012493538
98	0x3b614ecd	0.0034379244
99	0x3d3810f7	0.044938054
100	0xbc201d5b	-0.009772624
101	0x3c99a66c	0.018756114
102	0x3c98728d	0.01860931
103	0xbc28c349	-0.010300466
104	0xbc354d60	-0.011065811
105	0x3bb9375f	0.0056523527
106	0xbd0bbab9	-0.03411362
107	0xbd2f6404	-0.04281999
108	0x3d4b7717	0.04967412
109	0xbd55e9e7	-0.05222502
110	0x3c7e990e	0.015539421
111	0x3b1da1da	0.002405277
112	0x3c343cd6	0.011000833
113	0x3cf39cb3	0.029737806
114	0x3b09050b	0.0020907547
115	0xbc1511d9	-0.0090984935
116	0xbc689f18	-0.014198087
117	0x3d6fec68	0.058575064
118	0x3c8a8b7d	0.016912216
119	0x3c3ff24c	0.011715483
120	0xbcbf4d19	-0.023352193
121	0xbcf954d2	-0.030435953
122	0xbc4b16dc	-0.012395587
123	0xbca8d99b	-0.020611575
124	0x3b80cf96	0.003930996
125	0x3d0caf40	0.03434682
126	0xbc388fab	-0.011264722
127	0x3cb00b74	0.021489836
128	0xbb82fcad	-0.0039974065
129	0xbb736826	-0.0037140935
130	0xbcf0e3e8	-0.02940555
131	0xbc3eb952	-0.0116408635
132	0x3d11f794	0.0356365
133	0x3bb4788a	0.0055075334
134	0xbc71ddbf	-0.014762341
135	0xbc78cf43	-0.015186134
136	0xbd24b502	-0.040211685
137	0x3c1a97df	0.009435623
138	0xbc8c3675	-0.01711581
139	0xbbd536af	-0.006506763
140	0xbc4de873	-0.012567627
141	0xbc5e9797	-0.0135859465
142	0x3a9de70f	0.001204701
143	0xbb7143a4	-0.0036813999
144	0xbccc764b	-0.02495875
145	0xbc0257e0	-0.007955521
146	0xbb85dd12	-0.0040851915
147	0xbae7c2f9	-0.0017682008
148	0x3b74554a	0.0037282282
149	0xbc83fa6e	-0.016110625

fc2.weight f4 [64, 150]
0	0x3b91939f	0.0044426466
1	0x3b62152d	0.0034497485
2	0x3a9c0de8	0.0011906
3	0x3bb4aed4	0.005514005
4	0x3c1b2ea4	0.009471569
5	0x3a46ed74	0.0007588484
6	0xbb42ae52	-0.0029705954
7	0xbb88d685	-0.0041759633
8	0xbb06953a	-0.0020535723
9	0xbb24dbb4	-0.0025155367
10	0xbac78719	-0.0015222757
11	0x3b37d3e0	0.0028049871
12	0x3a6cba9c	0.00090304925
13	0x3a8a6a2d	0.0010560207
14	0xb7cb5f8c	-2.4243978e-05
15	0xbab7d8d3	-0.0014026411
16	0xbb5aaa49	-0.0033365658
17	0x3a802d28	0.0009779083
18	0x39d9400f	0.00041437193
19	0xb9ce3fd4	-0.00039338937
20	0x39cc4bfd	0.00038966528
21	0xbb221ac8	-0.00247352
22	0x3bb61966	0.005557227
23	0xb89b40d3	-7.4030504e-05
24	0x3abb2783	0.0014278743
25	0x3a7bf1d7	0.0009610927
26	0x39b70840	0.00034910627
27	0xb93a5768	-0.00017770904
28	0xbaf1ac01	-0.0018438102
29	0x3b1b5587	0.0023702101
30	0x39e1f550	0.00043098116
31	0xbaf41b80	-0.0018623918
32	0xbbe46166	-0.0069696186
33	0x3ac5a0be	0.0015077812
34	0x3bd53e76	0.00650769
35	0xbb15304c	-0.0022764383
36	0xba137c5a	-0.0005626135
37	0x3b9f0d36	0.00485387
38	0xbaa87832	-0.0012853204
39	0xbab805a6	-0.0014039769
40	0x3aaff98b	0.001342581
41	0x3a274bfa	0.0006381866
42	0x3b8181bd	0.0039522336
43	0x3ada39c4	0.0016649296
44	0xbac8c95b	-0.0015318798
45	0x38eefe43	0.00011396084
46	0x3a11b69a	0.0005558521
47	0x3aa98d55	0.0012935797
48	0x3946e401	0.0001896769
49	0xbb27efd4	-0.0025625126
50	0xbaf9b762	-0.0019051845
51	0xbb6c90f2	-0.0036097136
52	0xbabee0ef	-0.0014562885
53	0x3b57f747	0.0032953785
54	0xb935e22e	-0.00017345764
55	0x3b229251	0.002480645
56	0x3a9b66f6	0.0011856246
57	0x3ae163bc	0.0017195861
58	0x3a1c6836	0.00059664564
59	0x3c0f530e	0.008747829
60	0xbb394ba4	-0.0028273845
61	0xbb62b4af	-0.003459256
62	0x3ba7011b	0.0050965673
63	0xbaed9491	-0.0018125941
64	0xba818f5b	-0.0009884642
65	0xbb31982f	-0.0027098765
66	0x3aa76dbd	0.0012773793
67	0xbafabe1d	-0.0019130145
68	0x39aecd86	0.00033340993
69	0xbb9c26e8	-0.00476538
70	0x3aa8e719	0.0012886255
71	0xbb79ef97	-0.0038137191
72	0x39b981c4	0.00035382633
73	0xbb2dd320	-0.0026523545
74	0x3b1d0618	0.002395993
75	0xba334465	-0.00068384997
76	0x3b4d8fcd	0.003136623
77	0xb9e713c6	-0.00044074486
78	0x3b076daf	0.0020664742
79	0x3aad9330	0.0013242718
80	0x3b9de701	0.0048187976
81	0x3aa578b1	0.001262447
82	0xbb942df9	-0.004522082
83	0xbbad3cf3	-0.0052868067
84	0xbaf9c4ff	-0.0019055902
85	0xbae7724c	-0.0017657964
86	0xb9e0b227	-0.00042857343
87	0xba99eb53	-0.0011743106
88	0x3b74274b	0.0037254866
89	0xb9047069	-0.00012630377
90	0x3b7f25fa	0.0038932548
91	0x3aeba830	0.0017979201
92	0xbba99d26	-0.0051762043
93	0x3b37d9b4	0.0028053345
94	0xb9e6d1e2	-0.00044025393
95	0x3b715016	0.0036821417
96	0x3a718041	0.0009212532
97	0xbb0125fe	-0.0019706483
98	0x3a8692a0	0.0010267086
99	0xbbcca9aa	-0.0062458115
100	0xba1b2656	-0.0005918493
101	0x3b37d6bf	0.0028051583
102	0xba15ef35	-0.00057195436
103	0x3a8292e1	0.0009961986
104	0x3794749a	1.7697272e-05
105	0xba0abf3b	-0.0005292778
106	0x3b409050	0.0029382892
107	0x3b586398	0.0033018347
108	0xbaed17d8	-0.0018088771
109	0x3bdd602d	0.00675585
110	0xbafbab23	-0.0019200783
111	0x3b9d309c	0.0047970545
112	0xbb6fb9b8	-0.0036579203
113	0xbb5ae5b7	-0.003340108
114	0x39aec29f	0.0003333287
115	0xbb5e8bb9	-0.0033957793
116	0xb8dbadd9	-0.000104751154
117	0xbb046534	-0.0020201923
118	0x363dccfc	2.8282511e-06
119	0xba2aa0e5	-0.00065089605
120	0x3ad273ea	0.0016056274
121	0x3b5f36a8	0.0034059677
122	0xbaf3b5d4	-0.0018593618
123	0xbb504818	-0.0031781252
124	0x3ac5aa93	0.0015080742
125	0xbbced63b	-0.0063121594
126	0xbb637de8	-0.0034712497
127	0x3b1b9cab	0.0023744504
128	0xbb28d859	-0.002576372
129	0x3a171b45	0.00057642563
130	0xba7551c2	-0.0009358191
131	0x3b438f74	0.0029840143
132	0xbb926eee	-0.0044687903
133	0xbaa08312	-0.0012246093
134	0x3bc8295e	0.006108447
135	0x3b66d0f9	0.0035219772
136	0x3a910cc1	0.0011066423
137	0xbadd05cc	-0.001686269
138	0xbb1c5e01	-0.0023859742
139	0x3bb1d4b5	0.005426968
140	0x396b5584	0.00022443203
141	0x3b40d4af	0.0029423644
142	0xbaa8f697	-0.0012890872
143	0x3b646d28	0.0034855101
144	0x3afa5055	0.0019097427
145	0x3b44ef6d	0.0030049935
146	0x3a39c1f9	0.0007086094
147	0xbbb314a6	-0.005465108
148	0xbb219543	-0.0024655617
149	0x3b62508d	0.0034532875
150	0xbd9a35d8	-0.07529801
151	0x3e5e31c1	0.21698667
152	0x3e4709fb	0.19437401
153	0xbdd62df6	-0.10457985
154	0x3e420736	0.18948063
155	0x3da31079	0.07962126
156	0x3e593f88	0.21215641
157	0x3d1d1534	0.0383503
158	0x3d1223dd	0.035678733
159	0xbd97a608	-0.07404715
160	0x3deb1d5f	0.114802115
161	0x3e20408b	0.15649621
162	0xbe140a67	-0.14457093
163	0xbda4fa01	-0.08055497
164	0x3e578836	0.21048054
165	0xbd9ab378	-0.07553762
166	0xbdf30198	-0.11865538
167	0x3d8f717a	0.07004066
168	0x3e3303a2	0.17481855
169	0x3e29268c	0.1651861
170	0x3e3fe569	0.18739857
171	0xbce1b689	-0.02755286
172	0xbe2420a4	-0.16028076
173	0x3e353dec	0.17699403
174	0x3e54cf05	0.20782097
175	0x3e261987	0.16220675
176	0x3d5a01f6	0.053224526
177	0x3dcd9651	0.10038436
178	0xbe175420	-0.14778185
179	0x3dad4bfc	0.084617585
180	0xbd5db34b	-0.054126065
181	0xbd5bc90b	-0.053658526
182	0xbe3ee769	-0.18642963
183	0xbdab009c	-0.083497256
184	0x3e44ac99	0.19206466
185	0xbe6b247c	-0.22963136
186	0xbd844aec	-0.06459603
187	0x3dd98f0a	0.10622986
188	0xbe9ec932	-0.31012875
189	0xbd44e494	-0.04806955
190	0x3e077ada	0.13230458
191	0x3de74cfb	0.1129398
192	0x3d942fe0	0.07235694
193	0xbe2fb527	-0.17158948
194	0x3e8061dd	0.25074664
195	0x3d9fc6e7	0.078016095
196	0xbd8bae03	-0.068202995
197	0xbd5d1f37	-0.053984847
198	0xbe21f2a0	-0.1581521
199	0xbe3feb79	-0.1874217
200	0xbe069c08	-0.13145459
201	0x3da75109	0.08169753
202	0xbe17371a	-0.14767113
203	0xbd7a5949	-0.061120305
204	0xbd5457af	-0.051841434
205	0xbc3a5ec1	-0.01137513
206	0x3e40da93	0.1883338
207	0x3e2b5a79	0.16733731
208	0x3d7fb8f4	0.062432244
209	0xbba1c8ce	-0.004937268
210	0x3e5c868c	0.215357
211	0xbe25e583	-0.16200833
212	0xbe2a2b04	-0.16617972
213	0x3d60d2a7	0.054888394
214	0x3e1991e8	0.14997065
215	0xbe0cc894	-0.1374839
216	0xbc79e03c	-0.015251216
217	0x3d6bb9d5	0.05755027
218	0x3e103594	0.14082938
219	0x3e3c3805	0.18380745
220	0x3d5a0a44	0.053232446
221	0xbd80eee3	-0.06295564
222	0xbdad56e0	-0.08463836
223	0xbdf99515	-0.12186638
224	0xbdebbde7	-0.115108304
225	0xbe10eacb	-0.14152066
226	0x3e4648ee	0.19363758
227	0x3e58e023	0.21179251
228	0x3dc19a2d	0.09453235
229	0xbd7bffb2	-0.061523147
230	0xbdede7a6	-0.11616449
231	0xbdc12871	-0.09431542
232	0x3d14a32b	0.03628842
233	0x3d8ffa4b	0.070301615
234	0xbd86e0a1	-0.06585813
235	0x3d559cb7	0.052151408
236	0xbd8abcd4	-0.06774297
237	0x3d2a6539	0.04160044
238	0xbe02e086	-0.12780961
239	0x3e08aa53	0.13346224
240	0xbddb6141	-0.10711909
241	0xbdeb52d9	-0.11490411
242	0x3d421df4	0.047391847
243	0x3dd7759c	0.10520479
244	0xba0b1ef4	-0.00053070416
245	0xbe26772f	-0.16256402
246	0xbe005e8e	-0.1253607
247	0xbe855ae6	-0.26045913
248	0x3e1a9b41	0.15098287
249	0x3dda2c25	0.10652951
250	0xbd978135	-0.07397691
251	0x3e3b156d	0.18269892
252	0xbd43b187	-0.047776725
253	0x3e40e3a8	0.18836844
254	0xbe3607cd	-0.17776413
255	0x3de72506	0.112863585

fc2.bias f4 [64]
0	0xbcaf4a67	-0.021397782
1	0x3d12e37b	0.035861474
2	0x3c771ee8	0.015083052
3	0x3b912fe0	0.004430756
4	0x3caf9ac4	0.021436103
5	0xbd2ee440	-0.042698145
6	0xbbeccf7a	-0.0072268816
7	0x39b6a319	0.00034835262
8	0x3d845d35	0.0646309
9	0xbc853f33	-0.016265487
10	0xbd10ce64	-0.03535308
11	0xbb960980	-0.004578769
12	0xbd36ed64	-0.044659987
13	0xbd76bf1b	-0.060240846
14	0x3cdae900	0.026722431
15	0x3ddb8d41	0.107203014
16	0xbb8e914d	-0.0043508173
17	0xbbe35e80	-0.0069387555
18	0xbd783337	-0.060595717
19	0xbcf8351e	-0.030298766
20	0xbd264d71	-0.040601198
21	0xba5ff337	-0.0008543017
22	0xbd067265	-0.03282394
23	0x3cdc8e28	0.026923254
24	0xbc93e27f	-0.018052338
25	0x3bcfb8a1	0.006339148
26	0x3bdd72a9	0.0067580533
27	0x3a32b7b1	0.0006817533
28	0xbce20c4a	-0.02759375
29	0x3c9693be	0.018380996
30	0x3cb3d526	0.021952223
31	0xbd3ab80c	-0.045585677
32	0x3bd9c953	0.006646314
33	0xbca3b109	-0.019981878
34	0x3bf6cf90	0.0075320676
35	0xb8c88ec2	-9.563334e-05
36	0x3b4a74f9	0.0030892475
37	0xbba51d35	-0.005038882
38	0xbc0f2610	-0.008737102
39	0x3df75214	0.12076202
40	0xbab5e4d1	-0.0013877397
41	0xbcf65313	-0.03006891
42	0xbcb5c7e0	-0.022190034
43	0x3bd531ba	0.006506172
44	0xbce3234c	-0.027726792
45	0xbd256068	-0.040375143
46	0xbc289a27	-0.010290659
47	0xbd069a1a	-0.032861806
48	0xbb8875a7	-0.004164416
49	0xbc19edf6	-0.009395113
50	0x3b401b4d	0.0029313148
51	0x3c4401c2	0.01196331
52	0xbb8ebc49	-0.0043559414
53	0x3b471bbb	0.003038152
54	0xbc329356	-0.010899385
55	0xbc23dfdf	-0.0100021055
56	0x3c0b9e8d	0.008521688
57	0x3df4c708	0.11952025
58	0xbc9a83ca	-0.01886167
59	0xbce7f29e	-0.028313931
60	0x3e039d42	0.12852958
61	0x3ba62613	0.005070457
62	0xbc81dbef	-0.015851943
63	0x3caa8a1e	0.020817813
