Saved models/base_ml_model_v2/model_weights.pt (torch, 970133 bytes, 12 tensors)

conv1.weight f4 [24, 3, 5, 5]
00000000: 8ce8 c33c 1ab8 d4bd f123 973d 8725 3cbd
00000010: 1310 ef3c a761 a8bd a123 cbbb f698 1bbd
00000020: bbc9 2b3d 3296 90bc 56b4 e0bd c63e 7a3d
00000030: 65db 85bd 3ab8 553c ce8d bbbb e68f c13c
00000040: d470 943d bc0c 6d3c 8155 7ebd 5c9a 59bd
00000050: cc21 8abd f701 ad3c 98ca 9ebb a604 243b
00000060: a96a be3d 3f94 333d 9128 94bd 02bc d33b
00000070: ea6a 653d 88fe 913d 7de5 853d a5b7 35bd
00000080: 66e3 873d 1004 b83c 0b23 aa3c 2b9e 8d3d
00000090: 1047 53bb bc73 2a3d c902 18bc 5b47 6abd
000000a0: 3627 763b 5a85 4dbd 6f27 e93b ce8d 203d
000000b0: 2e12 ad3c e8d4 da3d f478 823d 7e12 b1bc
000000c0: dfa8 c53d 3582 b4bd ef4b 52bd 25ed 82bd
000000d0: 0a41 97bd 2898 fcbc 6fc8 9bbd 1b0a d0bd
000000e0: deb7 99bd a1e6 ebbd 2c52 81bd b20d 203d
000000f0: cf63 a9bc 180c a0bd 7312 cd3c d1c6 903d
00000100: 564e e23c c9fb 7c3d b2da 03ba d62b cc3d
00000110: a456 553d 82da 96ba 2f92 abbc ee06 1a3d
00000120: 3224 cc3d 7cf6 3fbd 2e95 a03d 2fc1 82bd
00000130: 191c a83d 36e7 963c bf23 82bd b5f6 783d
00000140: 3eb8 de3d cd42 113c 02eb e03c 0aed 9d3d
00000150: 30ef 8a3d 89cb d83c 140b 4fbd c1d6 05bd
00000160: 2521 88bd af97 863d b45e 5ebd 3eab 37bd
00000170: b274 4a3d 6f25 b2bd 8b63 bcbc 3a9d d6bd
00000180: ae57 d3bd 1531 d9bd 4665 51bb 7c56 293c
00000190: 3dc0 86bc fda6 45bd b53f 84bc e37a 063b
000001a0: 3dcb 6f3c 1521 6b3b 9df1 9f3d 1828 0a3d
000001b0: d8d0 4b3d 83f9 063d ee51 1abb 97f5 d03d
000001c0: 05e0 143c ac5a ca3d fba5 17bd b8c0 a23d
000001d0: 1169 a03b 6aa1 10b9 0cee 2cbb bcda a0bd
000001e0: 972d 6dbd f25c 203d 593c cdbd 27fa bfbd
000001f0: ef68 283d 5afc b2bc 3676 133d 9d9b e63b
00000200: ef0d 27bd ff38 e73b cdf2 203d 31a7 813d
00000210: 655c d43d b9f8 4ebd 77d1 19bd 8a88 ce3a
00000220: f2f4 b03d 560c b53b a341 2bba 1a93 6fbd
00000230: a7c9 b43b b84c a7bc 2b75 f73c e486 4e3d
00000240: 6a61 11bd 4202 67bd 3b2b 4abd 459c 92bd
00000250: 32f9 0e3a d741 44bd 9e48 8ebc dcf5 5bbd
00000260: 120a 8cbd df8c 753d 1c7f ffbb ca70 b03d
00000270: 6a2a 07bd 7b1e 243d 6b54 f03b f37b 4bbd
00000280: 2aea c53c d809 793b 357a 8d3d bb09 313d
00000290: 4d6c 2c3c 8bde 4a3c 6439 d73c b4bc 293d
000002a0: 4709 553d ed0f bcbc e4fe d1bd 4ab4 1a3b
000002b0: 2ec0 e4bc 908d e7bd e391 61bc 2b77 9a3d
000002c0: cc1e d1bc 6101 793d a75f b0bd 927f f63c
000002d0: 1b90 1b3d 989b 813d 2fa3 bd3d 19ec 6e3d
000002e0: c146 893d c25d 633d abf1 983d f80a bc3d
000002f0: ceba b53c f2e7 2d3d a305 0dbd 820b b8bd
00000300: 27c7 673d cb2f a6bd b9cd 81bd 1d1d 93bd
00000310: 402c b8bd 799c d3bd e4d1 203c 355c 2dbd
00000320: 430e 9f3d b190 943d 10bf ad3c 1158 eabc
00000330: 7e52 b03c 8e04 573d 7fa3 883d 7158 8a3d
00000340: 9182 29bc 1550 823d 45df 8a3d 0b43 153d
00000350: 544d b53d f921 813c 4bf7 b6bd dcc7 693d
00000360: ce84 4b3d 1734 c1bd c531 77bd cb59 463d
00000370: b6d8 28bd 62a6 0abe 6277 94bd dc43 fcbd
00000380: 2b94 d1bd 71a5 073c 8fc1 ffbc 3fa5 87bd
00000390: 53d8 af3c c2e6 103c adbc bcbd 9cc3 773d
000003a0: 5787 ee3c cd22 583c c53c 29bc 4441 96bc
000003b0: a05c 9f3d 5142 a53d 43a2 923d 6934 a4bc
000003c0: 91f8 313d 9153 f93c 25dd 02bd 0e90 223d
000003d0: a259 c2bc fb72 a2bd adb1 5b3d 046b 743d
000003e0: c0b2 ffbc dd7d b9bd c603 64bd a986 b73c
000003f0: 3269 513d c88d e4bc 43e1 02bd 26c8 d3bd
0.023914598 -0.10386677 0.07379902 -0.045934226 0.02918247 -0.08221751 -0.0061993157 -0.03798767
0.041940432 -0.017649744 -0.10971896 0.06109502 -0.06535987 0.013044411 -0.0057236915 0.023628186
0.07248083 0.014468368 -0.06209326 -0.053125724 -0.067447275 0.021119101 -0.0048459284 0.0025027185
0.092976876 0.04384255 -0.072343 0.0064616213 0.056010164 0.07128626 0.06537912 -0.04436459
0.0663517 0.022462875 0.020768663 0.06914934 -0.0032238401 0.04161428 -0.009278008 -0.057196956
0.0037559993 -0.050176002 0.0071152966 0.039197735 0.021126833 0.1068514 0.06370726 -0.021615263
0.0965135 -0.088138975 -0.051341947 -0.06392888 -0.07385452 -0.030834273 -0.07606589 -0.101581775
-0.07505773 -0.11518598 -0.06314501 0.03907556 -0.020677475 -0.07814807 0.025033211 0.07069171
0.027625244 0.06176356 -0.00050298416 0.099692985 0.05208458 -0.0011509212 -0.02094373 0.037604265
0.09967841 -0.046865925 0.07840954 -0.06384503 0.08208484 0.018420797 -0.06354474 0.060782153
0.10874985 0.008866024 0.02745581 0.07711227 0.06783903 0.02646424 -0.050547674 -0.03267551
-0.06646947 0.065719 -0.054289535 -0.044841044 0.049427696 -0.08698546 -0.022996685 -0.10479207
-0.10319458 -0.10605065 -0.0031951233 0.010335561 -0.016449088 -0.048254956 -0.01614366 0.0020520024
0.014635858 0.0035877873 0.07809756 0.033729643 0.049759716 0.032952797 -0.002354737 0.102030925
0.009086614 0.098805755 -0.037023526 0.079469144 0.0048953374 -0.00013793042 -0.0026387004 -0.0785422
-0.057904806 0.03915114 -0.10021276 -0.09373885 0.041115697 -0.021848846 0.036001407 0.0070375935
-0.040784772 0.007056355 0.039294053 0.06330717 0.10369185 -0.05053017 -0.037553277 0.0015757245
0.086404696 0.005525152 -0.0006532913 -0.058489896 0.005517203 -0.020422325 0.030207237 0.05042161
-0.035493292 -0.056398638 -0.049357634 -0.07158712 0.0005454003 -0.047914352 -0.017368611 -0.053701267
-0.06837858 0.0599488 -0.007797135 0.08615263 -0.032999434 0.04006813 0.007334282 -0.049678754
0.02415951 0.0038000252 0.06908075 0.04322217 0.010523868 0.01238216 0.026272483 0.041439727
0.0520108 -0.022956813 -0.10253695 0.0023605996 -0.02792367 -0.11306298 -0.013767692 0.07542261
-0.02552738 0.06079233 -0.08611994 0.030090127 0.037979227 0.06328505 0.092596404 0.05833063
0.06702948 0.055509336 0.074679695 0.091817796 0.022183802 0.04245753 -0.034429204 -0.0898657
0.05658641 -0.081145845 -0.063380666 -0.07183287 -0.08992815 -0.10332579 0.009815667 -0.042324264
0.07766392 0.0725416 0.02120927 -0.028606446 0.02152371 0.052494578 0.066718094 0.0675515
-0.010346071 0.06362931 0.067808665 0.03644089 0.0885264 0.01576327 -0.08933886 0.057075366
0.0496872 -0.094337635 -0.0603502 0.048425477 -0.041222297 -0.13540033 -0.07249333 -0.12317631
-0.10233339 0.00827919 -0.031220226 -0.06623315 0.021465456 0.008844079 -0.092156745 0.060489282
0.02911727 0.013191891 -0.01032943 -0.018341668 0.07781339 0.080692895 0.07159855 -0.020044522
0.043449942 0.030435355 -0.03194918 0.039688163 -0.02372438 -0.07932087 0.05363624 0.05967237
-0.031213164 -0.0905721 -0.05566766 0.022403078 0.051125713 -0.027899638 -0.031953108 -0.1034091

conv1.bias f4 [24]
00000000: 7873 483d 9882 e53d 568d 65bd 57cf cabd
00000010: d652 573d 5a26 50bd 31f3 c33c a540 b7bd
00000020: 12b0 9fbd c5d5 b43d ad93 cbbc 94e1 94bd
00000030: 1806 06bd e3cc ae3a b6ec a33d 4d2c ad3d
00000040: 51b5 ecbd 0557 44bd 5a6e a83c 96cb 9fbd
00000050: 205c 26bd accf 353b 43b6 bdbd 0a75 67bd
0.048938245 0.112065494 -0.05604299 -0.09902828 0.052569233 -0.050817825 0.023919674 -0.08947877
-0.077972546 0.08829836 -0.02485069 -0.07269588 -0.032720655 0.0013336207 0.080041334 0.08455715
-0.11558021 -0.04793455 0.020560432 -0.07802503 -0.0406152 0.002774219 -0.09263279 -0.0565081

conv2.weight f4 [24, 24, 5, 5]
00000000: e7d4 a8ba 4ee1 143c eee4 0fba 4647 2e3c
00000010: bb6a 583c 81ea 513b 0bc5 eb3b 2421 633c
00000020: 50d4 d23b 9c86 653c d4e6 3c3b 9590 7e3b
00000030: 7702 083c 3b07 b53b f048 403c 12aa eb3a
00000040: 6a89 e03b 0e99 073c b0a5 963a 7342 f83a
00000050: a79d da3b 1f98 cf3b 9e4c 133b b4cc ec3b
00000060: 3280 1bbb 8429 8ebb 6da0 13bc 7f09 0bbc
00000070: 0104 2abc 3cc6 28bc a929 0dbc 4701 82bc
00000080: ab02 69bc abeb 51bc b4dd 38bc 631c cfbb
00000090: 7b04 e5bb 0ef2 e0bb bd58 a7bb 21d2 2cbb
000000a0: 75c2 b83b 47ce a63b c3bb f13b f812 d53b
000000b0: 3464 0f3c 1baa ed3a 4321 1e3a be07 8c3a
000000c0: 0c75 0a3b 39f3 883a 7465 9fbb 6ad7 a3bc
000000d0: 0cd9 83bc 364b 9dbc 7842 93bc 9679 71bc
000000e0: a678 91bc bbaf d1bc a455 bbbc 9498 8fbc
000000f0: 8e0b 98bb 32f6 11bc 02c3 a3bb 38d3 fdbb
00000100: d290 b439 f39e 363c 1088 2c3c 8341 6c3c
00000110: 3a12 4d3b 005d 2c3c 7e64 38bb 2da2 0d3c
00000120: d4ac fa3a 64c4 db3b d34e 053b 2b8b 923b
00000130: cc67 e4bb adb8 1d3c 560d 603c 15f6 2d3c
00000140: 20f2 c23b 9ee6 2dbc 62db 0ebb c2ea 373b
00000150: 84c5 573a 492b 88bb 7751 603c b64a 5b3b
00000160: 5339 7b3b 56d8 443b 9afd f63a 1011 b9bb
00000170: e3bd f7ba 6cc4 1c3c 9b8a e3ba 9f66 473b
00000180: de0b 1cbc 1ecb 413c c236 643c 76e4 8fbb
00000190: de8b 013c b1ed d33b ec39 4c3b fe43 5f3b
000001a0: eb9d b2ba d8eb 5e3b 0047 7d3a 2ba2 edba
000001b0: 71c9 ce3a fad9 00ba 3f90 5abc abd8 7ebc
000001c0: bd80 6dbc 01de 08bc 972a 08bc 72b3 7dbc
000001d0: 8da0 6cbc 00ac 50bc 2d63 acbb ab7e a1bb
000001e0: c5e1 aebb 98c5 6dbb 93f3 dcba 3b21 b23b
000001f0: c351 7c3b 0ccc f63b d6ca 2c3c ca52 673c
00000200: aee6 823c 4ef8 613c 006a 8f3c c0de af3c
00000210: 55c0 b63c 8b84 ac3c 9e8c 873c 9bb4 473c
00000220: 7aa1 483c 25a9 333c 2c75 123c 03e1 893b
00000230: 63df 65bb d21d 33bb a6a0 06bc 3d76 a6bb
00000240: 614b 92bb f366 6cbb 8f46 52bb b9d3 7aba
00000250: 43fb ed3a 0422 0a3b 37d0 d73a 1e96 4f3b
00000260: 9b3c a03b 4cb3 ce3b 68e2 d53b 9393 df3b
00000270: 06f5 453c 8dc0 593c 8e21 823c 6411 453c
00000280: 7c49 943c 1080 b33c a76c c53c 8094 b33c
00000290: de2f 9a3c a9ce ee3b c8ab 1b3c 6411 0d3c
000002a0: 2520 d33b bdde 863b 6969 57ba 23f8 b5ba
000002b0: 2f20 10bb e4b0 6cbb 8b35 4abb de1f 91b9
000002c0: 4c03 85bb 31e0 95bb 67c2 babb 6730 1dbb
000002d0: e949 993a 55c6 aabb 9899 093a 7654 3b3b
000002e0: b3c3 7eba cc48 5fbc a05f 6ebc 0479 46bc
000002f0: 2cd8 04bc 4c77 9ebb 1498 1abc 798b 1cbc
00000300: 0118 eebb dc52 a8bb 9c01 f9b9 8bc7 0dbb
00000310: c314 14bb 3fde 8dba bdcd 95ba 7b21 fe38
00000320: b60a 5abb c8ca 88bb 4a4d 7dbb 1737 3cbb
00000330: 9a6c 81bb eccf f1bb 19f6 06bc 27b4 f0bb
00000340: 540f 9bbb 2d0b 88bb b95a 4cbc 11d9 4dbc
00000350: 6642 2fbc 3119 02bc fd48 fcbb f480 6abb
00000360: de36 2dbb 431d 38ba 06ee 3f3a 2a19 9bba
00000370: 2a9c 263b 9c74 793b e06d 913b 9968 893b
00000380: 43d8 2939 12f5 e63b bce3 013c 5bcc 3c3c
00000390: 2a2d 423c e56d 133c 9bf7 6b3c f00a 8c3c
000003a0: dd77 a13c 329a 853c 8b46 903c 3f93 873c
000003b0: 59fe a13c 0f6b af3c c184 993c cb6d 883c
000003c0: bcf7 073b b015 7b3b e10e 143b a5ca fd3a
000003d0: a265 503b 575d 89ba 754c 40bb 07e2 1fbb
000003e0: d230 4fbb 281d 7abb b455 073c 9a9c 483c
000003f0: cef3 653c 0924 463c 92af 443c cdb5 8c3c
-0.0012880833 0.00908692 -0.000548913 0.01063711 0.01320904 0.0032030644 0.00719512 0.013862882
0.006434001 0.014009144 0.0028824108 0.0038843502 0.008301369 0.0055245436 0.01173614 0.0017979762
0.0068523185 0.008276237 0.001149347 0.0018940702 0.0066716257 0.006335273 0.0022476087 0.007226551
-0.0023727533 -0.004338445 -0.009010416 -0.008486151 -0.010376931 -0.010301169 -0.00861589 -0.01586975
-0.0142218275 -0.012812535 -0.011283327 -0.0063205226 -0.0069890595 -0.0068647927 -0.005107014 -0.0026370364
0.0056384155 0.005090508 0.0073771193 0.0065025054 0.008751918 0.001813236 0.0006032178 0.001068346
0.0021126894 0.0010448463 -0.004864389 -0.020000178 -0.016094707 -0.019200902 -0.01797603 -0.014738461
-0.017757725 -0.02559649 -0.022867985 -0.01752881 -0.0046400493 -0.008908795 -0.004997612 -0.0077461265
0.00034440175 0.011146295 0.010530487 0.014419916 0.0031291381 0.01052022 -0.002813607 0.008644623
0.0019124993 0.006706761 0.0020341172 0.0044721565 -0.0069703814 0.00962655 0.013675055 0.010617753
0.0059492737 -0.010614065 -0.0021798243 0.002806351 0.0008231031 -0.0041555506 0.013691298 0.003346128
0.0038333728 0.0030036173 0.001884389 -0.005647786 -0.0018901195 0.009568315 -0.0017360033 0.0030426157
-0.009524314 0.011828212 0.013929071 -0.0043912483 0.007906882 0.006467544 0.0031162454 0.0034067626
-0.0013627385 0.0034015086 0.0009661764 -0.0018129995 0.0015776587 -0.00049152935 -0.013340055 -0.015554587
-0.014496026 -0.008353711 -0.008310935 -0.015484678 -0.014442575 -0.0127363205 -0.005260846 -0.00492843
-0.0053369724 -0.0036281105 -0.0016857259 0.0054360903 0.0038500882 0.0075316485 0.010546407 0.01411886
0.015979137 0.013792111 0.0175066 0.02146852 0.022308508 0.021059295 0.016546544 0.012189056
0.01224553 0.01096562 0.008939069 0.0042077317 -0.0035075776 -0.0027331007 -0.0082170125 -0.005080013
-0.0044645523 -0.0036072105 -0.0032085513 -0.00095682923 0.0018156547 0.0021077404 0.0016465251 0.003167517
0.0048900372 0.006307995 0.006527234 0.006823012 0.012082344 0.013290537 0.01588514 0.012028072
0.018101446 0.02191165 0.024099661 0.021921396 0.018821653 0.0072878194 0.009501405 0.008610103
0.006443041 0.004115908 -0.00082173065 -0.0013883155 -0.002199184 -0.0036116177 -0.0030854668 -0.00027680298
-0.004059231 -0.004573845 -0.005699444 -0.002398515 0.0011695 -0.0052116313 0.00052490225 0.0028584278
-0.00097184925 -0.013628196 -0.014549166 -0.012113813 -0.00810818 -0.0048359986 -0.009435672 -0.009554737
-0.007266045 -0.0051368307 -0.0004749418 -0.002163383 -0.0022595383 -0.0010823681 -0.0011429113 0.000121179
-0.0033270544 -0.004174564 -0.0038650804 -0.002871936 -0.003949714 -0.0073795225 -0.008237385 -0.0073456946
-0.004732052 -0.004151723 -0.012472802 -0.01256396 -0.010696983 -0.007940576 -0.0076991306 -0.0035782428
-0.0026430408 -0.00070234033 0.000732154 -0.0011833061 0.002542267 0.003806389 0.004438147 0.004193377
0.0001619766 0.0070482576 0.007927831 0.0115233315 0.011851588 0.008998369 0.014402295 0.01709506
0.019710476 0.016308878 0.017611763 0.016549705 0.019774603 0.021413354 0.01874006 0.016653916
0.0020747026 0.0038312487 0.0022591876 0.0019362761 0.003179886 -0.0010480088 -0.0029342447 -0.0024396197
-0.0031614793 -0.003816435 0.008260179 0.012244368 0.014035178 0.012093552 0.01200475 0.017176533

conv2.bias f4 [24]
00000000: 4124 04bd 9c1f 07bd 4a9e a6bd fa23 83bd
00000010: 5939 46bd 0040 d5bc cdb1 0a3d 51ca 51bd
00000020: 8e6e a1bd 5b42 22bc 5aa2 2abd 90b9 e93b
00000030: 06f3 01bd 4563 6d3c e229 a2bd e5e8 3bbc
00000040: 59ff e6bc cc2c 86bd 1182 8cbd add0 e7bc
00000050: 1602 21bc db4f abbc 06ff ddbd 6b4e dabc
-0.032261137 -0.03298913 -0.0813566 -0.06403346 -0.048394535 -0.026031494 0.03386097 -0.051218335
-0.07882415 -0.009903516 -0.041658737 0.0071327165 -0.031725906 0.014489 -0.07918145 -0.011469101
-0.028197931 -0.06551513 -0.06860746 -0.028297747 -0.0098271575 -0.020912101 -0.108396575 -0.02664872

conv3.weight f4 [48, 24, 5, 5]
00000000: 15fd 54bc 7729 2dbc 7ab3 c6bb fd41 1fbc
00000010: 933d c2bb 7411 b1bb c2a6 8b3b 551e 9d3a
00000020: 7b80 b33b 281e 083c 5c9a 433b c6eb 44bb
00000030: 256d e43a 87f6 303c e5f2 e73b 7c6b 193c
00000040: 3390 0b3c 433a 6b3c 4474 c73b bff9 1bbb
00000050: b737 1a3c 22cc 383c ff2e 173b 20b3 293b
00000060: bdba 14bc 5b7a 183c d762 273c c1dc ee3b
00000070: 2c2b 033c fa46 993a 0c53 d63b 618d 833c
00000080: 63ee 8b3c d1a3 e43b dc4b f9bb 0778 ac3b
00000090: 77b2 343c 0e77 d73b 2c93 1fba b572 9abb
000000a0: 49e3 b4bc e751 bcbc d501 c0bc 086e dcbb
000000b0: eb28 6939 9ab5 d8bc bf18 e9bc 29fe aebc
000000c0: 4e8b 1ebc 3055 9bbb 742b 66bc 8e32 c5bb
000000d0: 1f39 9bbb 7d04 2dbc e2eb bebc b3a4 3f3c
000000e0: 4c59 a73c 3693 ae3c 9dd4 3c3c 68b7 413b
000000f0: 7f68 f4bb 52d4 10bc f054 1bbb a403 bbba
00000100: e6c3 b53b 89cb 9dbc 0c99 d2bb d367 153b
00000110: 417f dd3a 5f4b 99bb 97c7 aebb 0fd2 04ba
00000120: da3e 64bb ced2 b8bc 69f6 febc 3eed 313c
00000130: c77c c63c 9eaa 813c dd2a b33c 6ee7 883c
00000140: 43b9 893c f9ab b13c 8278 db3c b18a 683c
00000150: 53df 183b 90d3 4b3c 8c41 a03c ffc3 463c
00000160: 5c2b c6bb 785e 74bc c7ea c2bb d658 acbc
00000170: fd75 93bc 4b15 8abc babb 1abc caba d8bc
00000180: 3f03 17bd 72fa e0bc 7978 11bc 410b 1d3b
00000190: eae5 10bc 0d55 28bc c861 0939 69b1 4dbb
000001a0: 7b9b f13b a8f3 c03b 4633 063c d489 ff3b
000001b0: 6d9d 383c d98e b93c b9d0 d03c 7ca6 323d
000001c0: d15e 313d 37f8 193d 4ae9 733c a32a a73c
000001d0: 3535 293d 1171 213d 5b85 eb3b 2c96 b6bc
000001e0: d26f 933b 1268 96b8 8562 39bc 745e 04bc
000001f0: 9264 57bc e9e8 cdba bcc8 c7ba 021a f63a
00000200: 3639 9aba d9fe 9abb b58d 393b bc27 153c
00000210: 5858 323c 9233 c33b 885e 1a3a 1632 893b
00000220: 3a3c 6f3b da18 153b 753e 753b 9aa0 e43b
00000230: de03 1bbc 3747 60bc c667 0dbc ea6b daba
00000240: db64 db3b 6245 1ebc 0c3d 17bc 409b eabb
00000250: 2720 0abc 087c 37bc 3602 9bbc 3d6e 9cbc
00000260: 77cc 4cbc 1ca6 5ebc 116b 18bc a3b8 01bb
00000270: 8baf 6d3a fe65 473b e9a4 173c e727 003c
00000280: 2e7c 7bbb 497a 523b da49 5c3b 4a56 0e3c
00000290: 0bb5 603c defd 25bb 8c9e a13b 4feb 6c3c
000002a0: afb8 473c 3322 8a3b a256 fe3b 9407 ab3b
000002b0: 9b90 a33b ebb0 20bb 304a 7cbc a63c 293c
000002c0: 96dc 373c fdc4 7a3c 10f5 793c a652 0b3c
000002d0: 66b0 dd3b a8b0 8a3c eba9 6f3c f072 0a3c
000002e0: 551a e0bb 1e47 c83b 2c81 773c 8493 723c
000002f0: 4536 3f3b 20cf 95bb 2cb3 81bc 07c3 b1bc
00000300: 1859 8fbc 86a4 f6bb 97b4 eaba 2992 eebc
00000310: ccf0 dabc 4af6 94bc 18b3 56bc 1e4b dc39
00000320: 757e 003b 6609 d33b 6bef 4b3c dbd4 8f3c
00000330: decf 8c3c 5e52 e23b 8b18 043c 87ad 403c
00000340: c822 a93c 60c8 d13c cb7a e93b fe6c a33c
00000350: f1b3 e93c 03c0 fb3c 9f94 6c3c 3483 c03c
00000360: af53 1f3d c59e 113d 4f45 ab3c 2e11 edbb
00000370: 5e70 0b3c 8610 223c 05ec eb3b 7772 37bb
00000380: 9ea0 52bc 012e 66bc aeef b73a d827 41bc
00000390: 1b9f 653b e5a9 f1b8 a289 6e3c 4036 603c
000003a0: c0ea b83b 67bf 193b fa8b 393b 4674 13bb
000003b0: fa95 89bb b948 0c3c 3179 3b3c bc37 0b3c
000003c0: 9a55 003c de91 1bbb ea7b dc3b 8f4a e9ba
000003d0: 67e7 13bb ea82 25bc f237 3a3c f618 5abb
000003e0: fd57 55bb 749b a7bc 8f68 e93b ddbb 413c
000003f0: 0910 083c c55d a03b dbf3 3bbb 2934 943b
-0.012999793 -0.010568968 -0.0060638757 -0.009720323 -0.0059277504 -0.005403692 0.0042618224 0.0011987189
0.0054779625 0.008307971 0.0029846644 -0.0030047758 0.0017427547 0.010800964 0.007078516 0.009364005
0.0085182665 0.014357152 0.006086858 -0.0023799983 0.0094126975 0.011279138 0.0023068783 0.002589412
-0.009077725 0.009306516 0.010216436 0.0072894995 0.008005898 0.0011694126 0.0065406617 0.016058626
0.017081445 0.0069775362 -0.00760792 0.005263332 0.011028877 0.0065754717 -0.0006087299 -0.004713381
-0.022081034 -0.022988273 -0.023438374 -0.006726984 0.00022235855 -0.026453782 -0.028454183 -0.021361427
-0.0096767675 -0.0047403798 -0.014048446 -0.0060179895 -0.004737034 -0.010560152 -0.023305837 0.011696982
0.020428322 0.02131043 0.0115253 0.0029558782 -0.007458746 -0.008839684 -0.002370175 -0.0014268053
0.0055470346 -0.019262092 -0.006426936 0.002279748 0.0016898887 -0.0046781744 -0.0053338516 -0.00050667016
-0.0034827502 -0.022561457 -0.031123357 0.010859786 0.02422942 0.015828427 0.021871025 0.016711917
0.016811972 0.021688448 0.026790861 0.014193223 0.002332647 0.012440577 0.019562505 0.01213169
-0.0060476493 -0.014915101 -0.005948398 -0.021038454 -0.018000597 -0.016855856 -0.009444172 -0.026456255
-0.03686833 -0.027463172 -0.008878821 0.0023963007 -0.008843878 -0.010274184 0.00013101764 -0.0031386262
0.007373271 0.005888421 0.0081909355 0.007798413 0.011268002 0.022651123 0.025490152 0.043615803
0.043303315 0.03759023 0.014887163 0.020406073 0.041310508 0.03941447 0.007187528 -0.022288404
0.004499414 -7.171942e-05 -0.011314993 -0.00807916 -0.013146536 -0.0015709671 -0.0015242319 0.0018776061
-0.0011766318 -0.0047300872 0.0028313224 0.009103712 0.010885321 0.0059570754 0.000588872 0.004186879
0.0036504404 0.0022750408 0.003742126 0.006977153 -0.009461371 -0.013688854 -0.008630699 -0.0016664241
0.0066953725 -0.009660097 -0.009230863 -0.0071596205 -0.008430517 -0.011199005 -0.018921953 -0.019095534
-0.01249992 -0.013589408 -0.00930287 -0.001979389 0.00090669905 0.0030425782 0.009255626 0.007822013
-0.0038373577 0.0032116345 0.0033613355 0.008687565 0.013715039 -0.0025328319 0.0049322303 0.014460399
0.012190028 0.0042155026 0.0077617923 0.0052194092 0.0049916035 -0.0024519514 -0.015398547 0.010329401
0.011222025 0.015305755 0.015256181 0.008503592 0.006765413 0.01692994 0.014627914 0.008450255
-0.0068390765 0.0061119935 0.015106481 0.014805678 0.0029176634 -0.0045718104 -0.015832506 -0.021699442
-0.017498538 -0.007526937 -0.0017906603 -0.029122429 -0.026726149 -0.018183846 -0.013104223 0.00042017637
0.0019606624 0.0064403294 0.012447218 0.017557552 0.017188963 0.0069067916 0.008062492 0.011760122
0.020646468 0.025608242 0.0071252338 0.019949432 0.028528186 0.030731207 0.014439731 0.023500063
0.038898166 0.035551805 0.020907072 -0.007234714 0.008510677 0.009891635 0.0071997666 -0.002799181
-0.012855677 -0.014049054 0.0014033222 -0.011789285 0.0035037461 -0.00011523421 0.014559181 0.013684809
0.0056432188 0.0023460032 0.0028312192 -0.0022499724 -0.004198787 0.00856226 0.0114424685 0.008497175
0.007832909 -0.0023738067 0.006728639 -0.001779871 -0.0022568346 -0.010102013 0.011365877 -0.0033279038
-0.0032553666 -0.020459868 0.00712306 0.011824575 0.008304604 0.0048939907 -0.0028679285 0.0045228195

conv3.bias f4 [48]
00000000: 2b15 653c 99f2 1d3d 965b acbd 6e32 10ba
00000010: 0205 93bb b59a 213d 7801 d3bc 5754 ca3c
00000020: 7a4f ea3c 3a53 343c c2e3 14bc a576 85bc
00000030: 3cd7 c03c 5137 f63b ba62 cebd e2b5 11bd
00000040: 9f51 373c 1928 babd d051 96bb 5746 013d
00000050: d8e2 5abc d5a0 60bd ca79 e0bc 916d 003d
00000060: 09cc a73c 8b66 fb3c 2dc5 dabb 5462 5ebd
00000070: 6b58 6e3c a4eb 143d 7c0c 58bd 4c0f 81bc
00000080: 4c97 bf3c 85f0 14bd 3e13 2b3c 993e 31bd
00000090: bbdb 52bb 74c0 fcbb b336 423d 0196 b6bb
000000a0: 1e92 50bd 3481 debc 643b b53c a052 533c
000000b0: ecad 77bc 826c 7b3d 0c52 793c 87d4 a43c
0.013982098 0.038561437 -0.08415906 -0.00055006787 -0.004486681 0.03945418 -0.025757536 0.02469842
0.02860235 0.011006171 -0.009087505 -0.016291926 0.023540132 0.0075139184 -0.10077424 -0.035573848
0.011188894 -0.09089679 -0.0045873895 0.031561222 -0.013359748 -0.05484088 -0.027401824 0.03135449
0.020483034 0.030688545 -0.006676337 -0.05429299 0.014547448 0.036357537 -0.05274628 -0.015754364
0.023387574 -0.03636219 0.010441599 -0.04327259 -0.0032174427 -0.007713372 0.047415446 -0.005572081
-0.0509206 -0.027161218 0.022123046 0.012898117 -0.01511715 0.061382778 0.015217315 0.020120872

conv4.weight f4 [48, 48, 5, 5]
00000000: 6daf 1a3c 399d 923b dbea 68bb 2811 b8bb
00000010: 9700 a13a f7cf 6e3c b1a5 b03b 08d0 21bb
00000020: 36ea 41bc 96bb 1abc e607 56bb acad faba
00000030: a235 02bb 79ee 88bb 88ce 45bb 532b 61bc
00000040: dd9f c3bb 12ec d8bb 9db1 a2bb a9ed 143c
00000050: f449 8abb f633 053c d2b5 703c b930 a13c
00000060: 7cb9 3b3c 4f4d 463b 6e71 a63b 93a0 26bb
00000070: b5ed febb 6180 8bbb 36e5 b83c 18be 433c
00000080: c2bf bcbb 11fa d1bc 1ec8 fbbc 55b7 813c
00000090: d229 4f3b 7a32 05bc 50fe a2bc d9ab 67bc
000000a0: 6afc 24bc b29c 42bc 8782 3fbc edf6 f2bb
000000b0: 494a 9d3c 5e54 9ebc 0931 aebc 71d7 8ebc
000000c0: 2ff0 a9bb c28c 0d3c 9986 8ebc 458b 163b
000000d0: e5a1 423c b303 973c 6162 183c 6f2f bc3c
000000e0: cd6f 103d 8522 df3c b932 a83c 87cd 3d3c
000000f0: fa5b 033d 9af1 1b3d c67e d93c 26de 183c
00000100: 5efb cc3a 9650 043b eec9 5d3c 43e7 243c
00000110: 7667 64ba e8bc cdbb 68d8 473b 1349 b83c
00000120: 3894 073d 2187 fc3c 104f bd3c 2d5c 183b
00000130: c581 4a3c 6877 4b3c 55ee 2b3c d4c2 183b
00000140: dfe4 983c 0319 823c e2f9 1a3c 9ab0 5fba
00000150: e7d7 a6bc 343d 883c 42ae 8f3b e75f 60ba
00000160: 4be6 d6bb a74a 94bc c928 adbb af86 75bc
00000170: 2cd0 8cbc 272b 87bc 5eba dfbb 937b 1dbb
00000180: 3acd 82bb c832 c9bb 1a15 84bb 6012 da3b
00000190: 085c 453b 25cf babb 5c44 08bc 3830 adba
000001a0: a312 14ba 77df 2fba e7ed 09bc 00a7 8cbc
000001b0: a268 35bc 20e0 b4bb bd63 963c 7700 013c
000001c0: 0711 08bc 78ae 23bc 3856 03bc f01d fb3c
000001d0: 0712 fb3c d024 913c 5702 fe3b 9bf0 60ba
000001e0: d138 623b 5d19 813b 0d10 35ba dcbc 6cbb
000001f0: 0a62 d3bb 9818 43bb 649c 85bb dff1 19bb
00000200: 43d1 0fbb 76b8 a4bb f4b8 03bc 4900 d23a
00000210: c228 fc3b af1d 3d3c 4146 f53b 22d4 61bc
00000220: 52b1 d0bb 1195 34bb 8301 26bb be72 38bc
00000230: 29a4 fc3a 5559 17bb 5f4c b6bb 8ce4 50bc
00000240: 74a8 cabc 5fe9 993b 016d 313b 67e3 67ba
00000250: 25db 0cbc 1699 1cbc f228 573a 6915 34bc
00000260: 29d6 74bc d399 46bc a148 9bbb 0f7d f1bb
00000270: 8ba3 3bbc b4b2 8ebc 7379 69bc 3c38 aeb9
00000280: d412 81bb 1e47 313a 399b 22bc 59af 56bc
00000290: 055b 6b3b 9d2c 083c a0b6 7c3c d722 5b3c
000002a0: bd78 523c 131f 7b3c 033f 5dbb 4e32 643b
000002b0: d5f9 913b 010e 533b a54f dbbb cfbc 3bbb
000002c0: d118 8ebc 9d69 88bc c041 33bc eda8 b0bb
000002d0: 3280 88bc 8b5c a2bc 9537 89bc 54c9 96bb
000002e0: 9f2a 7c3c 5539 2abc a55b 0dbc 67be 44bc
000002f0: 2cb8 80bb c590 2e3c 2fe2 043c ceeb 473c
00000300: 39e8 1f3c 11ab 073c 61c5 8fbb 1462 0b3c
00000310: 99c8 253c 6923 bd3b 5686 4ebb a25c 84bc
00000320: 26a2 dd39 8970 4db9 a463 113c ed0f 293c
00000330: 267c ad3a dca1 1abb e436 afbb 108c 863b
00000340: 7add 303c 80bd 093c 6444 02bc ab3f 6fbc
00000350: 5c52 1fbc 2dcf bb3b 93b0 2e3b 4a8f e9ba
00000360: bb0d 2fbc 4bfb 68bc 0667 d1bb 6c18 35bc
00000370: 1fb5 993c 1e22 473c 627b 0d3b 2e1c 57bb
00000380: 351a edbb 887d 323c 7ca2 413b 9d91 20bb
00000390: 87f9 01bb d193 043b 24b6 9ab9 8af0 9ebb
000003a0: e849 37bc f7f4 3fbc daf3 64ba 4c42 223c
000003b0: e10f 353c dede 6f3b 03e7 6cba 3064 af3b
000003c0: 0533 943c b847 c93c 1b70 a13c dc8c 083c
000003d0: 2805 d538 faea c8bb 877d 0abc c632 04bc
000003e0: d9ed 0fbc a8bc 22bc 044f 823b 32e4 1a3c
000003f0: b642 143c ea91 bf3b e12f 19bb a087 303b
0.009441239 0.004474309 -0.0035540375 -0.0056172796 0.0012283501 0.01457595 0.0053908457 -0.0024690647
-0.011835625 -0.009444138 -0.0032658516 -0.0019125245 -0.0019868393 -0.004178819 -0.0030182917 -0.013743239
-0.005969985 -0.0066199386 -0.004965021 0.009089866 -0.0042202417 0.008130064 0.014691787 0.019676553
0.011457797 0.0030258482 0.00507944 -0.00254253 -0.0077798017 -0.0042572473 0.022570234 0.011947177
-0.005760164 -0.025631936 -0.030735072 0.01583449 0.003161062 -0.00812971 -0.019896656 -0.014140093
-0.010069946 -0.011878179 -0.011688835 -0.0074146898 0.019200461 -0.019327339 -0.021263616 -0.017436715
-0.005186103 0.008639516 -0.017398166 0.0022971195 0.011879419 0.018434381 0.009300799 0.022971837
0.03526287 0.02723814 0.020531999 0.011584646 0.032070138 0.038072206 0.026549708 0.009330308
0.0015638878 0.0020189635 0.013536913 0.010064903 -0.00087129266 -0.006278623 0.0030493978 0.022495782
0.033100337 0.030826153 0.023108989 0.00232483 0.012360041 0.012418605 0.0104938345 0.0023309486
0.018663822 0.015881067 0.009458991 -0.00085330906 -0.020366622 0.016630746 0.004384787 -0.00085592124
-0.006558215 -0.018102003 -0.005284403 -0.014985724 -0.017189108 -0.016500069 -0.0068276366 -0.0024029955
-0.00399175 -0.006140087 -0.004030836 0.0066550225 0.003011467 -0.005700963 -0.008317079 -0.0013213223
-0.0005648529 -0.0006709019 -0.008418537 -0.017169476 -0.01107231 -0.005519882 0.018358106 0.007873646
-0.008304841 -0.009990327 -0.008016162 0.030653924 0.030648245 0.017717749 0.007751744 -0.0008580775
0.0034518728 0.003939791 -0.0006906994 -0.003612331 -0.006450896 -0.0029769298 -0.004077481 -0.0023490114
-0.0021944798 -0.0050268723 -0.008039702 0.0016021813 0.0076952884 0.011542722 0.0074851816 -0.013783487
-0.0063687945 -0.002755467 -0.002533049 -0.011257825 0.0019274998 -0.0023094018 -0.0055633034 -0.012749802
-0.024738528 0.0046970095 0.0027073028 -0.0008845836 -0.00859717 -0.009557983 0.00082077004 -0.010991433
-0.014943638 -0.0121216355 -0.0047388826 -0.0073696445 -0.011452566 -0.017419197 -0.014250147 -0.00033229764
-0.003939012 0.00067626114 -0.009924703 -0.01310333 0.0035912406 0.008311418 0.015424401 0.013375006
0.012846169 0.015327233 -0.0033759482 0.0034820023 0.004454831 0.0032204392 -0.006692844 -0.0028646474
-0.017345818 -0.016651923 -0.010940969 -0.0053912313 -0.01666269 -0.019819519 -0.016750136 -0.004601637
0.015391021 -0.010389646 -0.008627807 -0.012008286 -0.003928205 0.010654633 0.008110567 0.012202216
0.009759956 0.0082805315 -0.004387543 0.00850727 0.010118627 0.0057720435 -0.0031513176 -0.016157452
0.00042273215 -0.00019592246 0.008873854 0.010318738 0.0013235852 -0.002359501 -0.0053471196 0.004106052
0.010794992 0.008406997 -0.007950876 -0.014602582 -0.009724226 0.0057314844 0.002665554 -0.0017819193
-0.010684426 -0.014220069 -0.006390455 -0.011053186 0.018763123 0.01215413 0.0021588434 -0.0032823193
-0.00723579 0.010894187 0.002954631 -0.0024500855 -0.0019832568 0.0020229707 -0.00029508874 -0.004850452
-0.011187054 -0.011716119 -0.00087338465 0.009903502 0.011051149 0.0036601345 -0.0009037109 0.0053525195
0.018090734 0.024570331 0.019706776 0.008334365 0.00010157592 -0.006131527 -0.00845278 -0.008068746
-0.008784735 -0.0099326745 0.0039767046 0.00945382 0.009049108 0.0058462517 -0.0023374485 0.0026936308

conv4.bias f4 [48]
00000000: f078 50bc 110e 05bd 3a5b b0bc 9359 ffbb
00000010: 376a 93bc 341c 9ebc 02a4 64bc 7071 ebbc
00000020: 2cf9 7fbc f958 aebc 98b9 06bd 0a37 6dbd
00000030: 2793 27bd 8766 81bc fa27 0dbc 0d23 cabb
00000040: d99a f2bb 6d25 32bd 216e 4cbc 4fb0 0dbd
00000050: 5960 1abc 4b38 b2bc de53 5bbc 8b73 05bd
00000060: 4695 55bd 75c5 febb cd92 febc 3467 8abc
00000070: 98d2 fdbc bddc 12bd edda adbc 2966 a23a
00000080: b84e b8bc 7128 823b 4c2c 39bc db2c 56bc
00000090: be48 f1bc cc13 e5bc 14c0 b9bc 608a 0bbd
000000a0: a85b 33bd 5539 9ebc d631 46bc a773 96bc
000000b0: 819c bfbc fbd2 d2bc a8dd 3a3c 8642 f9bb
-0.012724146 -0.032484118 -0.021527875 -0.0077926605 -0.017994983 -0.019300558 -0.013955118 -0.028740615
-0.015623372 -0.02128266 -0.03289184 -0.057913817 -0.04091182 -0.01579596 -0.008615488 -0.006168729
-0.007403713 -0.043492723 -0.012477429 -0.03459197 -0.009422385 -0.021755358 -0.013386695 -0.032580893
-0.05214431 -0.0077750036 -0.03107586 -0.016894914 -0.030984208 -0.035855044 -0.021222556 0.0012390065
-0.022498474 0.003972106 -0.011302065 -0.013072218 -0.029453631 -0.027963541 -0.022674598 -0.03406751
-0.043788582 -0.019314447 -0.012096843 -0.018365694 -0.023390057 -0.025735369 0.011405386 -0.007606807

fc1.weight f4 [115, 1200]
00000000: f9f1 0bbc dd91 72bc 710e e53a 26d1 e5ba
00000010: cf29 1938 1072 953b d538 2fbb 7cbe 563b
00000020: 775f 873b fded 743b 2ec2 20ba 0a11 37bc
00000030: ab88 95bb fa10 3bbc 1777 29bc 0e5f ad3b
00000040: 2c53 043b 4677 193b a4fd f23a 1d2f 713b
00000050: 30f0 9a3c 9c6b 373c 9624 56bb eb0a 59ba
00000060: 8f8b 63bc 750b c23b 29ee 713c 59c9 323b
00000070: dda9 ceba 69a4 06bb 5720 8dbc 2611 d3bb
00000080: 4180 bd3a d916 e93b 5e35 873c 9146 57bc
00000090: 5316 9abb 81d4 51ba 0732 583c b721 ea3c
000000a0: 7719 38bb 3417 b0ba 58aa cdba 4f85 133a
000000b0: e950 503b 4e26 bbbc d27a 97bc 1fd8 d5ba
000000c0: 4297 a23c 11a4 043d d1fe 8ebc 4eaf 9ebb
000000d0: c0ff 6bbb 850e 50bc 6de6 993a f69d 4eba
000000e0: 1457 f6ba 30cf 8a3b 1574 43bc 8ebb 87bc
000000f0: 0362 e5ba 1c45 723b 1b16 183c e664 87bb
00000100: a47d ccbc 1d90 053b e940 4a3b 224d cc3b
00000110: 89ff 96bb f032 a4bc ffe7 b33b 4b4e b03b
00000120: 58e3 39bb 7d0a 8ebc 1cd1 a6bc 30b2 99bc
00000130: 0c6e db3a 997e 933b 03eb d0bb a76e 973b
00000140: c3b0 63bc 6acf 32bb 9d99 1f38 6a3b 57bb
00000150: 8e28 2a3b 8714 003c 27b1 a23b 8a06 a03b
00000160: 20db 1e3a 6777 4ebc 75ad 82bb 3f8c ceb9
00000170: c4d1 acba 08b2 003b 193e d0bb e455 ac3b
00000180: 6f79 6e3c da36 0a3c a28a b73b 1f45 a53b
00000190: 9d46 6fbc 31af 13bc 5e5f a0bb d723 b23b
000001a0: 2324 8f3b b4e3 6f3b 4cdd 853b 7b33 743b
000001b0: 8ad3 973b 7f9d 03bc 38a6 e73a 6784 f5ba
000001c0: 77db b63b 3541 4b3c 4730 f6bb 49d9 733c
000001d0: 5026 113c 0b65 2e3c e741 ea3b ba17 04bc
000001e0: ae7e 933c 6fa6 7f3a 7e04 283c 02ad 3fbb
000001f0: 8a57 52bc e5ce 08bc 22fb a0bb b465 07ba
00000200: 4df3 733a 6624 11bc 4b83 febb ba17 b7bb
00000210: f135 3abb 42be 2b3b f0bc 8cbb eb1a 7abb
00000220: e6d9 ebbb 6782 643b 0b20 96bb bde2 38bc
00000230: e082 1a3c 2247 6c3c 0b8b 1e3c 5cf9 6fbb
00000240: 04c0 d5bb 3194 af3b 8816 b53b ce7a 483c
00000250: b501 963b 8992 93bc eeab 13bc d1d0 753b
00000260: 91f7 1a3c b949 f03b 9538 a23b 8159 32bc
00000270: 115a a1ba cefc 1d3c 6411 f73b 2a21 0f3c
00000280: dbd3 06bc eadd 17bc f178 463b e5e3 6d3b
00000290: 4e12 613b e18e 813b 609e 8bbb 90b8 ddbb
000002a0: 02ec 56bc 6fd8 9cbc 0562 20bc 2740 6abc
000002b0: 1654 09bc ff8e ff39 2b04 613c 4ea5 1bbc
000002c0: 7aa4 7fbc 226c 1abb b919 03bb 6e08 8bba
000002d0: a449 e5ba 3924 6dbb 0849 78bb 03f1 a63a
000002e0: a071 183b 7cd3 073b a8e9 e0bb ba34 8aba
000002f0: 71fd 19bc f9ce 4ebb 1bcc a1bb 7eda b73b
00000300: db0f 68b9 68af 5cbb 706b ecbb 0793 a13c
00000310: 2aea 693c c4bd c63b 4e19 bb3b 9b3b 7cbc
00000320: 77c2 93bc f8eb 99bb d36a c53b 9ef9 9fba
00000330: f71a e33b 8cc5 1fbc 69e7 cdbb 8486 10bb
00000340: 7a3a 013a 998a 903b 9e2f 0d3c f0d4 2a3b
00000350: e958 cb3a 7b3f c6ba 1311 08bc d173 e63b
00000360: 2c5c 223b 33b2 a53b b48d 4cba 11b4 0dbc
00000370: 8a32 ec3b 5f7e 303c 4cdf a23b 6f90 e13b
00000380: 546d af3b dff2 3c3c 0752 723b c345 b43a
00000390: 2bbd d5bb 9d10 a0bc 5639 c1ba 5840 3039
000003a0: 6607 343b 673b b03b b114 76bc b46c 8d3b
000003b0: db31 bc3b a5c6 4cb8 5dfc b3bb f9a7 95bc
000003c0: 0d20 773b 8410 d43b 27eb 413b f6dd 78bb
000003d0: ff2c abbb 74d2 933c 894f 313c d117 9fbb
000003e0: 7397 a5bc f6a5 43bd 8beb 72bc de8a c5bb
000003f0: 5087 713b 0cf8 813b 3c67 fa3b ebc0 86bb
-0.0085415775 -0.014805284 0.0017475617 -0.0017533645 3.651698e-05 0.0045607165 -0.0026736755 0.0032767346
0.0041312533 0.0037373297 -0.00061324507 -0.011173496 -0.004563411 -0.011417622 -0.010343335 0.0052908724
0.0020191176 0.002341704 0.0018538726 0.0036801763 0.018913358 0.01119509 -0.0032675616 -0.000827952
-0.013888254 0.005921776 0.014766254 0.0027280657 -0.0015767176 -0.0020544773 -0.017227335 -0.0064412532
0.0014457778 0.0071133194 0.01650494 -0.013139383 -0.0047023683 -0.0008004383 0.013195521 0.02858053
-0.002809135 -0.001343465 -0.0015691025 0.00056274695 0.0031786507 -0.022845414 -0.018491182 -0.001631502
0.019847516 0.03238303 -0.01745549 -0.0048426753 -0.0036010593 -0.012698774 0.0011741646 -0.00078818144
-0.0018794262 0.0042361245 -0.011929532 -0.016568925 -0.0017500523 0.0036967462 0.009282614 -0.004131901
-0.024962254 0.0020380088 0.0030861443 0.006234781 -0.004608099 -0.02004382 0.0054903026 0.005380427
-0.0028364267 -0.017338986 -0.020363383 -0.018761724 0.001674117 0.0045011756 -0.006375672 0.004621345
-0.013897124 -0.0027284273 3.8051618e-05 -0.003284181 0.0025964114 0.007817394 0.004964966 0.004883592
0.0006059874 -0.01260171 -0.003987963 -0.00039395873 -0.0013185074 0.0019637365 -0.006355059 0.0052592624
0.014555319 0.008435929 0.005601243 0.0050436403 -0.014604238 -0.009013937 -0.004894181 0.0054364013
0.0043683215 0.0036604227 0.0040852185 0.003726213 0.0046333717 -0.008033155 0.0017673438 -0.0018731476
0.0055803615 0.012405683 -0.0075130793 0.014883348 0.008859232 0.010644208 0.0071489695 -0.0080622975
0.018004742 0.00097522786 0.010254977 -0.0029247408 -0.012838254 -0.008350109 -0.00491275 -0.0005164996
0.0009305969 -0.008858776 -0.007767116 -0.005587545 -0.00284135 0.0026205932 -0.004294984 -0.0038163017
-0.0071976064 0.0034867765 -0.0045814565 -0.011284527 0.009430617 0.014421256 0.009676705 -0.0036617136
-0.006523134 0.005358242 0.0055263676 0.01223631 0.00457784 -0.01801421 -0.009013159 0.0037508497
0.0094584385 0.007333007 0.0049505928 -0.010885597 -0.0012310167 0.009642793 0.007539915 0.008735934
-0.008229221 -0.009269217 0.003028449 0.0036299166 0.0034343186 0.0039538 -0.004260823 -0.0067663863
-0.013117792 -0.019146172 -0.009788995 -0.014297522 -0.008381864 0.0004874393 0.013733904 -0.009499861
-0.015603179 -0.0023562987 -0.0020004346 -0.0010607371 -0.001749326 -0.003618492 -0.0037885327 0.0012736622
0.0023261085 0.002072542 -0.0068637915 -0.0010544278 -0.009398804 -0.003155647 -0.0049376613 0.005610763
-0.00022131151 -0.0033673886 -0.007214956 0.019723428 0.0142770205 0.0060651023 0.0057098037 -0.01539507
-0.018037064 -0.004697319 0.0060246973 -0.0012205129 0.0069307047 -0.009751689 -0.0062836898 -0.0022052834
0.0004929673 0.0044110534 0.00861731 0.0026066862 0.0015514168 -0.001512512 -0.008304852 0.0070328494
0.0024774177 0.0050566434 -0.0007803098 -0.008648888 0.007208173 0.010772317 0.0049704667 0.006883673
0.005353609 0.011532514 0.0036975162 0.0013753701 -0.0065227947 -0.019539172 -0.0014741819 0.00016808638
0.002747023 0.005378175 -0.015019582 0.004315937 0.005743248 -4.8822392e-05 -0.0054927305 -0.018268572
0.0037708313 0.0064716954 0.0029589625 -0.0037974096 -0.00522387 0.018044688 0.010822185 -0.004855134
-0.020213818 -0.047765695 -0.014826666 -0.006028517 0.0036854334 0.003966337 0.007641701 -0.004112353

fc1.bias f4 [115]
00000000: a011 18bc 7442 c4bc 1f40 ce3b 6a91 913c
00000010: 85d8 80bc b918 f43b f966 1fbc acf3 c63b
00000020: 9598 0b3b a76e 18bc 2151 0c3d 9068 793c
00000030: f2a8 a13b 705c a53c d9bb 88bc 5886 ba3b
00000040: 66b9 703b 0238 94ba 24ba 2fbc 9bae d33b
00000050: d3a2 2d3c d558 8bbb c61d 88bb 8622 68bc
00000060: 6d33 e938 31ac 033c b533 d3bc fc98 df3b
00000070: 9167 023c d62e 353b 9c81 b5bb 670f 583b
00000080: ee96 34bc afab 633c 93a1 6ebb a459 9cbc
00000090: 3131 bd3b 7d6c a8bc 224a c7bb fd8b 0abb
000000a0: 42c2 34bb 78c7 ea3b 571c f9b9 b041 2c3a
000000b0: caae 41bc d06f af3b af27 98bb 9114 3abc
000000c0: d56c 033c 3cf2 5bbc 4e2c 36bc afc9 6bbc
000000d0: 24eb 7a3c 031f cb3b 9390 f1bb fd93 af3c
000000e0: 3814 943b 2b3a 94bc 0eec c0bb fc53 003b
000000f0: 6167 7bbb a3e1 ecbb f4d6 d13c 171d 343a
00000100: 58a9 263d a6a1 91bc 96ee 4c3c db5d 4a3b
00000110: 1080 6aba 1ee0 26bb bac5 5abc 3d6a 273c
00000120: 50bc b53a a595 afbb d27f 1b3c 857e c9b9
00000130: af47 64bb eb90 f8ba 01e2 8a3b 042b 0a3b
00000140: 32cb 063c 87e6 db3b 209c df3c 17f4 3439
00000150: 45c1 01bb 22b2 e1b9 c479 9dbb 3565 513b
00000160: a405 a83a aea8 8b3b c523 423c d670 8aba
00000170: eebd db3a 47b8 9d3c e9fc 2a3b 9ab0 aebc
00000180: 01bc 983c 4cfe 1c3c 9ddf d33b 9293 22bb
00000190: e22d c1bc 2ca5 6cbb f27e 83bb 3b1d 7b3b
000001a0: 692e 203c fd43 b13b 0ba5 6dbb 776d ad39
000001b0: 2d4d c6bc 67cc 69bc 28e0 e83b d791 6e3c
000001c0: 5b64 5c3b a5cc 3dba a7a6 0abd
-0.009281546 -0.023957469 0.006294265 0.017769534 -0.015728245 0.007449236 -0.00972914 0.0060715284
0.0021300663 -0.009303725 0.034257058 0.015222684 0.00493347 0.02018568 -0.016691135 0.0056922846
0.00367316 -0.0011308196 -0.010725532 0.0064600236 0.010597902 -0.004252533 -0.00415394 -0.014168387
0.000111198846 0.008036659 -0.025781492 0.006823657 0.0079592625 0.0027646325 -0.0055391323 0.0032968165
-0.011022313 0.013895913 -0.0036412224 -0.019085713 0.0057736863 -0.020559544 -0.0060818354 -0.0021140568
-0.0027581607 0.007164892 -0.00047514096 0.00065710675 -0.011821458 0.0053539053 -0.0046434025 -0.0113574425
0.008021553 -0.013424452 -0.0111189615 -0.014391347 0.015314851 0.0061987652 -0.007371971 0.021432871
0.004519012 -0.018094143 -0.005887515 0.0019581309 -0.003836118 -0.0072290464 0.025615193 0.000687079
0.040688843 -0.017777275 0.012508055 0.0030878696 -0.00089454744 -0.0025463174 -0.013352806 0.0102182
0.0013865326 -0.005358415 0.009490924 -0.00038431972 -0.0034832766 -0.0018964087 0.0042383675 0.0021082768
0.0082271565 0.0067108306 0.027296126 0.00017257068 -0.0019799036 -0.00043048064 -0.0048057754 0.0031951193
0.0012819064 0.0042620515 0.011849348 -0.0010562192 0.0016764977 0.01925291 0.0026090688 -0.021324445
0.018644335 0.0095821135 0.0064658658 -0.0024807197 -0.023581449 -0.0036109192 -0.004012936 0.0038316983
0.00977669 0.005409716 -0.0036261703 0.0003307869 -0.024206722 -0.014269925 0.0071067996 0.014561138
0.0033629152 -0.0007240272 -0.03385034

fc2.weight f4 [6, 115]
00000000: 78ff 8fbe 5a08 473c a03e 333e 7a9e 6a3e
00000010: cda3 99bd c5c2 203e 5189 afbd 13b6 eb3d
00000020: ce4a 8ebc f8c7 66be 2824 81bd 1591 ba3d
00000030: c4d6 4e3e 4c7a 48bd 926d 71be 8beb 5cbe
00000040: 3775 673e bcbe 0dbe 6d03 45bc c15f bbbd
00000050: b1c3 d63d 0025 ccbe 3897 ad3c ca5f 80be
00000060: 623d 23be c486 3bbe 3fcb 66be 7975 c63e
00000070: 4932 17be 27cb a43e 9f42 8abe 7fa1 c63d
00000080: e9c3 533e 6424 973e 5cc4 673e b41d 403d
00000090: b444 443e 028e 2a3d 7b48 223e 4139 be3e
000000a0: 78e8 ec3c d585 d6bd 7079 2a3d 2a46 fe3c
000000b0: bd41 4dbd 7576 46be 1403 a4bc aa89 f1bb
000000c0: e018 653e 1207 81be f682 e2bd 4d9e cbbb
000000d0: 0112 4c3e 5d27 e73c 7689 f9bc f8a8 5fbd
000000e0: d1ac 11be cc0e 993d 5d16 0cbe e1fa 2abe
000000f0: 87c4 4dbe 3dcb f9bd a953 0dbe 2512 adbc
00000100: 9845 81be b8e8 2ebe 1405 a23b ec46 46be
00000110: c940 f2bd 9b3d 85bd 7c82 0b3e 9b3a 023e
00000120: 28ab 2c3e 8173 14be 7fbc b93d af3e 873e
00000130: e4f4 82bc 88d9 b2be efdf 80be c076 9a3e
00000140: 8267 5c3e f43a 37be 2808 47be d13f 013e
00000150: d233 383c 5d63 523e 8f33 fdbd fc24 913e
00000160: 6bb6 19be bbd1 c83e 2159 713e 518e 30bd
00000170: 3947 3ebc 498f dbbd 6d66 cfbc 0e08 5a3c
00000180: cc48 663e e15b 103e 32c0 893e 7200 2a3e
00000190: 0ec2 97be 5145 783c b711 67be bdd0 15be
000001a0: 3a45 773c 40c1 b5bd 10d8 a73e 41f5 513e
000001b0: 46ef a3bd fc6c dcbd 3f43 a43d 4a68 533e
000001c0: 8691 5abe f150 54bd ef48 f43d cb67 113e
000001d0: a4b6 773e 07a8 9ebd 1684 56be 326c 973d
000001e0: 0cd6 843c 1063 963d 1830 4ebe 728d 793e
000001f0: c338 febc b28a 54be a59a 2f3e 38e4 a1bd
00000200: daa6 6cbe 8056 813e f99d a23e 1cd1 0bbe
00000210: cb27 26bd 6d81 cc3e 5181 4c3e 9a7f fcbc
00000220: b4d6 d93d 9522 83bd f343 883e 3ca0 223e
00000230: ab4a 533e bd8a a33e badd 98bd bf52 8f3e
00000240: bc20 1abe f488 08be b874 6dbe f350 4dbe
00000250: 1902 fabd f5e8 893e 05db 463e e9eb 2c3e
00000260: 73b2 7d3e 64d4 ab3d 2ad0 20bd 4f06 9cbd
00000270: 8ed7 8c3c f0e0 cabd 3d1a 0bbe e0c7 c63e
00000280: 0e46 d23d ae66 863e 1825 c63e 174c 6f3e
00000290: 5765 3cbd ea71 19be 8670 4b3e 7397 4dbe
000002a0: 7633 84be 562d 0a3e d08a 81be 3e78 9f3d
000002b0: 9644 843e d5e0 3d3e 2e4b 4c3d 9a45 fd3d
000002c0: 0bb9 72bd 838d 8bbd b643 d1bd 04ea 9ebe
000002d0: 2251 543e 791e ddbe b89a e3bd 94e2 64be
000002e0: c808 c73d f5da 03be bb8f 83be ee24 febd
000002f0: 7339 3bbd f4ad 7abe 9b98 90bc 95bb 3b3e
00000300: 2180 f23d 7fc8 693d 3003 233d ffd3 d4bd
00000310: d13f 01be fb64 db3c 153f 133d cd03 1dbd
00000320: 9619 6a3e 253b 823d 3d2a 2d3e 63cd 5ebe
00000330: 5190 47bb 029a 053e 6c90 7a3e 8605 0bbe
00000340: 69c5 96bd c413 25bd bbf9 6c3e 0c59 4ebe
00000350: f62d a23d 3cad e7bd 1299 ddbd d14c 5a3e
00000360: 48e2 c3bd 52bb 3fbe b69f 07bd a77b 52be
00000370: c6fa bf3d e4a7 07be d298 443d df46 483e
00000380: cca2 84be 69ea 91bd 8246 e43d 1027 283b
00000390: 2a0a c2bd d9b9 333e 507f 193e 7fce 6abd
000003a0: 948e 8b3e f979 2b3e 39b8 64be 8d85 c9bd
000003b0: a65e 69be a41f ed3c 2538 17be 253d 22be
000003c0: c74d 02be 5e01 5abe e461 903e 318f 603e
000003d0: 8703 2b3e afb1 1b3e 9f80 afbd 9b90 d03d
000003e0: b95d 7b3c 7bef 8a3b 42b7 b6bd 5597 c2bd
000003f0: f6db 8abe ce44 0d3e aa78 9d3e 05e9 1d3e
-0.28124595 0.012147987 0.17504358 0.22912017 -0.07501946 0.15699299 -0.08571113 0.11509337
-0.017369654 -0.2253722 -0.063057244 0.091097035 0.20199114 -0.048944756 -0.23576954 -0.21574228
0.22603308 -0.1384229 -0.012024743 -0.09149123 0.10486544 -0.3987198 0.02119027 -0.2507308
-0.15941384 -0.18313128 -0.2253847 0.387615 -0.14765276 0.32186243 -0.27003953 0.09698772
0.20680203 0.2951995 0.22633499 0.046903327 0.19166833 0.041639335 0.15847962 0.37153056
0.028919443 -0.10474745 0.041619718 0.031039316 -0.05011152 -0.19381125 -0.020020999 -0.007371147
0.2237277 -0.25200707 -0.11060135 -0.0062139393 0.19928743 0.028217012 -0.030461054 -0.0546045
-0.1422608 0.074735254 -0.13680406 -0.16697265 -0.200945 -0.12196968 -0.13801445 -0.021126816
-0.25248408 -0.17080963 0.004944453 -0.19362992 -0.11828763 -0.06505891 0.13623995 0.12717669
0.16862166 -0.14497186 0.09069156 0.2641501 -0.015985914 -0.34931588 -0.25170848 0.30168724
0.2152386 -0.17893583 -0.19436705 0.12622 0.011242824 0.20545717 -0.1236335 0.2834853
-0.15010993 0.39222512 0.23569156 -0.043104474 -0.0116136605 -0.10720689 -0.025317395 0.013307584
0.22488707 0.14097549 0.26904446 0.16601732 -0.2964024 0.015153245 -0.22565351 -0.14630409
0.0150921885 -0.0887475 0.3278203 0.20503713 -0.08004622 -0.107629746 0.08020639 0.20645252
-0.21344575 -0.051835004 0.119279735 0.1419975 0.24190766 -0.077468924 -0.20948824 0.073936835
0.016215347 0.073431134 -0.20135534 0.24370363 -0.031032925 -0.20756033 0.17148836 -0.079048574
-0.23110524 0.25261307 0.3176115 -0.13653988 -0.040565293 0.39942494 0.19971205 -0.030822564
0.106366545 -0.064030804 0.2661434 0.15881437 0.20633952 0.31941786 -0.07464166 0.27992818
-0.1505155 -0.13333493 -0.23189056 -0.20050411 -0.12207431 0.26935545 0.19419487 0.16886868
0.24775104 0.0839012 -0.03926102 -0.07618391 0.017192628 -0.09906185 -0.13584228 0.38824368
0.10267268 0.26250213 0.38700175 0.2336887 -0.045995083 -0.14984861 0.19867143 -0.20077305
-0.25820512 0.13493857 -0.25301218 0.07786606 0.25833577 0.18542798 0.049876384 0.12366791
-0.059258502 -0.068141006 -0.10217993 -0.31037915 0.20734075 -0.4318731 -0.11113495 -0.22352058
0.09718472 -0.12876494 -0.25695595 -0.124093875 -0.045709085 -0.2448042 -0.017650893 0.18333276
0.11840845 0.057075974 0.03979796 -0.103919975 -0.12622 0.02678155 0.03594883 -0.038333703
0.22861323 0.06358937 0.16910644 -0.21758036 -0.003045101 0.1304703 0.24469155 -0.13576326
-0.07361872 -0.040302053 0.2314214 -0.20151156 0.079189226 -0.11312339 -0.108202115 0.21318366
-0.09564644 -0.18723801 -0.033111297 -0.20554982 0.09374003 -0.13247639 0.047997303 0.19558285
-0.25905454 -0.07124788 0.11146261 0.0025658049 -0.09474595 0.17551364 0.14989972 -0.057325836
0.27257216 0.16745748 -0.223359 -0.09839926 -0.22790012 0.028945751 -0.14767511 -0.15843637
-0.12724982 -0.21289584 0.28199685 0.21929623 0.16700564 0.152045 -0.085694544 0.10183831
0.015342169 0.004239974 -0.089216724 -0.095015205 -0.27120942 0.13795778 0.30756122 0.15420921

fc2.bias f4 [6]
00000000: 5a99 003e 9fe5 643d e80c 27bd 5547 73bc
00000010: 535f b23c 3c1f 1abe
0.12558499 0.055883046 -0.040783793 -0.01484855 0.02177397 -0.15050977
